02-ANN-Artificial-Neural-Networks/model_files/2l-CLASSIFICATION-TaxiFareModel.pt (torch, 119578 bytes, 22 tensors)

embeds.0.weight f4 [24, 12]
00000000: b087 c03d 9900 ecbe 7128 7cbf 8b1d 263f
00000010: 942e 7b3f f2a7 56bf d672 b83f 0f8d 473e
00000020: 283b a4bf 3854 af3f aeda 533e 66da ca3e
00000030: 1fa6 14bf 28a5 f1bf 1519 31bf 5e21 ff3e
00000040: feb0 1f3f 7954 dfbf 8d8e e93f c371 29bf
00000050: 7288 d63e 0e77 ba3f 6e1f 29bf 1799 9a3f
00000060: e904 0ebf f3da cebf fd00 92bf 3545 743e
00000070: 72c1 1f3f 59c7 a2bf 89f2 0abf 3789 d2bf
00000080: ef53 57bf bb14 2a3f cba1 4dbf 5f63 c13f
00000090: 9cce 93bf e794 fabe a00f 80bf dc77 683f
000000a0: c80e fd3e 1018 0abf dadf 2f3f 10c9 5f3f
000000b0: 5671 333f e5ef 123e beec 8fbc 5a98 083f
000000c0: cc23 e6be 2bc3 b4be dc43 a33f 2d39 97bf
000000d0: 8bb1 53be 4c44 95bf fe8c 07bf 7bd7 573f
000000e0: 11e0 e43d a54c 74bf 1ecb 793f 62d2 6e3e
000000f0: a8a8 f93e e52e 873e c3ef 5d3f fc0d 0ac0
00000100: 2029 87be bdef a9bf 59fe b6bf 91de fb3d
00000110: d4cd 23bf 7550 6d3e 3a11 6d3e 23dc ae3d
00000120: 92fa ab3e 0bdd 1b3f a29d 1d3f 40f6 2abf
00000130: 3870 23bf df57 81be 4533 173e ff95 58be
00000140: 1c9e 683f bd4b 7cbf 79aa 9e3c 2991 1a3f
00000150: 4d58 ad3f a9a0 3e3e f610 0d3f bd86 99bf
00000160: 2f72 62bf f674 0f3e 94e3 1d3f 0b67 83bf
00000170: 073b 07bf f81c 88bf 550c 8abe 3e35 8abf
00000180: e685 2f3d f379 d1bd 4949 0340 8230 aa3f
00000190: 438b c8be afc3 1e3e 272c 48bf 3812 223d
000001a0: 7882 8c3e fec6 803f 5da7 5b3f 48ec 65bf
000001b0: 21f8 863f 251d bb3e 3276 793f fe1b ed3d
000001c0: 7b28 82bf b25d 273f dce7 52be 2404 49bf
000001d0: 8468 493f ee29 9c3f da6f 9bbf 8a91 82be
000001e0: 87b8 723e dacc a83f 2b7e ac3d a0be 8fbe
000001f0: 9efb 113e 2bcf 08be 747e 6dbf a095 193f
00000200: 699c db3d da73 2ebf f9f7 d0bf 391f 4ebf
00000210: 6720 003f 74c2 463f 850d 03be d082 c43f
00000220: 1f42 9c3e cec1 483f 38e3 d43e 2590 0cbf
00000230: b4af 81bf 2327 cbbf 91b4 643e b641 1dbf
00000240: 251f 6abf 968e 1abd 720c 343f a397 353f
00000250: d958 c9bd a03a 893f 034a 70bf 99e3 d83f
00000260: 2108 0ebf 80df ad3e 0efc 933f d31a 8fbf
00000270: 0872 be3f c821 ac3e b85d b8be 25e2 93bf
00000280: 652f 71bf abda e93d 1eb1 d4bd 49e1 0d3f
00000290: 4d5d a9be 727c de3c f7d4 c5bf 0479 a1bf
000002a0: e060 b53e 5eae 11bf 3143 573f 7ca2 1d3f
000002b0: e2df a8bf 1eba 643e b5fb 313f ab81 c3be
000002c0: 5003 53bf 2068 1d3e 29c0 3f3f 842f 59bf
000002d0: 107b 8cbd a765 78bd 5926 773d a98c 663e
000002e0: b589 e03e 0189 343f d1e9 9c3d a621 ccbf
000002f0: b127 5f3e 4bad 39bf dd4f a9bf b7a6 05bf
00000300: 5b47 88bf 1d24 60bf d0ef a2be d2ff 94bf
00000310: 6905 3bbf 4454 bc3e 081f 5e3f 763c 953f
00000320: ead6 b53b 7b0c 91bc f0e0 0bbf 0e4a e7be
00000330: 56b3 fcbe 188e dfbf 3302 11bf e757 5cbf
00000340: ceef 88bd ef57 c23e 790c 9cbf aeda 703e
00000350: 3efd 33bf 3bee 97be ed55 20be 1141 413f
00000360: 3361 9dbf d8ac 15bf 838d abbe 73b3 10bf
00000370: 5a36 e13e 1bce c4be 4709 bf3e 2a7e 10be
00000380: 5e25 20bf 2513 0f3d 690a 4ebf 2810 76be
00000390: bafc bdbf 7df2 34be b539 4bbf 4dce 97be
000003a0: e8ed 813e 6be1 563e f382 be3f 77d2 b5bd
000003b0: 8802 623f 1a6e 503a 3ab1 5cbd f120 493f
000003c0: ba9a f2bf f9a1 88bf cb87 aebe 66df d6be
000003d0: a493 1f3e bd85 07bf 5d04 7cbd f53f 0dc0
000003e0: f562 033f e09f 293f 509a 0bbf 471b 803f
000003f0: 12ed b9bf 203f 31bf 7fc7 a3bf a965 143d
0.0940088 -0.46094206 -0.9849921 0.6488883 0.9811795 -0.83850014 1.4410045 0.19487403
-1.2830553 1.3697577 0.20688888 0.3961975 -0.5806598 -1.8878527 -0.691789 0.49830145
0.62379444 -1.7447654 1.8246628 -0.6618921 0.41900975 1.4567583 -0.6606358 1.2077969
-0.5547624 -1.6160568 -1.1406552 0.23854525 0.6240455 -1.2717086 -0.5427633 -1.6448125
-0.8411245 0.6643788 -0.80325 1.5108451 -1.1547427 -0.48941728 -1.0004768 0.9080789
0.4942534 -0.53942966 0.68700945 0.8741617 0.7009481 0.14349325 -0.017568942 0.5335747
-0.44949186 -0.3530515 1.2755084 -1.1814324 -0.20673196 -1.1661468 -0.5294951 0.8431317
0.1117555 -0.9542945 0.9757556 0.23322442 0.48761487 0.26402965 0.8669397 -2.1571035
-0.26398563 -1.3276287 -1.4296371 0.122983105 -0.63985944 0.23175223 0.23151103 0.085380815
0.33589607 0.6088416 0.61568654 -0.66782 -0.6384311 -0.25262353 0.14765652 -0.21150969
0.90866256 -0.9855307 0.019368397 0.60377747 1.3542572 0.18615974 0.55104005 -1.1994244
-0.8845548 0.14009461 0.6167538 -1.0265821 -0.52824444 -1.063384 -0.26962534 -1.0797498
0.042852305 -0.10228338 2.051348 1.3296053 -0.39168748 0.15504335 -0.7819237 0.039568156
0.2744329 1.0060728 0.8580225 -0.8981366 1.0544473 0.36545673 0.97445977 0.11577605
-1.0168604 0.6537734 -0.2059626 -0.78521943 0.78675103 1.2200296 -1.2143509 -0.25501662
0.23703204 1.3187516 0.08422502 -0.28075123 0.1425614 -0.13360278 -0.9277108 0.59993935
0.10723192 -0.68145525 -1.6325675 -0.8051639 0.5004944 0.7764046 -0.12798126 1.5352421
0.30519196 0.7842072 0.41579604 -0.5490745 -1.0131745 -1.5871319 0.22334506 -0.6142839
-0.9145377 -0.037733637 0.7033149 0.70934504 -0.098313995 1.0721016 -0.9386293 1.6944457
-0.55481154 0.3395958 1.1561296 -1.1180061 1.487855 0.33619523 -0.36009002 -1.1553389
-0.94212943 0.11418661 -0.10385345 0.5542188 -0.33078995 0.02715895 -1.5455617 -1.2615056
0.35425472 -0.5690669 0.840869 0.61576056 -1.3193324 0.22336623 0.695247 -0.38184866
-0.8242693 0.15371752 0.7490259 -0.8483813 -0.0685941 -0.06064382 0.060339306 0.22514595
0.43855062 0.7052155 0.076617844 -1.5947769 0.21792485 -0.7253005 -1.3227497 -0.5220751
-1.0646776 -0.87555104 -0.31823587 -1.164057 -0.7305513 0.3678304 0.867661 1.1659076
0.0055493014 -0.017706146 -0.546401 -0.45173687 -0.49355572 -1.7465239 -0.5664398 -0.8607163
-0.06686364 0.37957713 -1.2191306 0.2352092 -0.7030829 -0.29673943 -0.15657778 0.7548991
-1.2295288 -0.58466864 -0.33506402 -0.5652382 0.4398678 -0.38438496 0.37311766 -0.14110628
-0.6255702 0.034930367 -0.80484635 -0.240296 -1.4842751 -0.17670627 -0.7938493 -0.29649583
0.2537682 0.20984428 1.4883713 -0.088780336 0.8828511 0.0007950977 -0.053879954 0.7856589
-1.8953469 -1.067443 -0.34087977 -0.41967314 0.15583664 -0.52938443 -0.0615276 -2.2070286
0.5132287 0.66259575 -0.5453234 1.0008324 -1.4525473 -0.69236946 -1.2795256 0.036229763

embeds.1.weight f4 [2, 1]
00000000: 2e43 44be da04 823e
-0.19166252 0.25394326

embeds.2.weight f4 [7, 4]
00000000: 9f5e 0d3e 0436 8e3e 19e8 1d3f d664 57bf
00000010: 3739 083f d9ca 17bf 5b93 823f f2cd bf3e
00000020: caf5 a43f 4d5c 77bf 9117 78bf 2d95 253f
00000030: 582d e83e 7043 1dbf 596f ffbf 8ab2 b1bf
00000040: b88b e4be dae0 b6bd d4ec 4d3f eb09 883c
00000050: d4e1 453f 0e5f 213d 5f82 1dbf 76fd fbbe
00000060: 9606 3a3e 3d5d 0ebe 1569 81be b9bf 7bbe
0.13805626 0.27775586 0.6168228 -0.8413824 0.532123 -0.59293896 1.0201219 0.3746181
1.2887509 -0.96625215 -0.9691096 0.6468075 0.45347095 -0.61431026 -1.9955856 -1.3882611
-0.44637847 -0.08929606 0.80439496 0.016606292 0.7729771 0.03939729 -0.61527056 -0.49216813
0.18166575 -0.13902755 -0.25275484 -0.24584855

embeds.3.weight f4 [14, 7]
00000000: b2ca 9f3e 3731 5c3f d9a0 953f afbe 0fbf
00000010: 26ca 663f a199 8a3e bb74 16bf 3375 923e
00000020: c3dd 3fbf 2f6b 3e3f fef8 10be b743 41bf
00000030: d94a 0bbf 66d7 913f 4f8f 7a3f e317 1dbf
00000040: a6a2 6b3e b2fc 3cbf 0f28 763f a22f 18bf
00000050: 4ca8 d83d 22d2 00bf 4712 13be f145 59be
00000060: 9fd2 24be a091 2f3f 97a0 b4be 3c83 07bf
00000070: 9e58 c3be 8043 babe 44a6 e5be 45fe 6ebe
00000080: af1a 7fbe 914b 353d 9313 0cbe c661 e3be
00000090: ad60 33bf 74b8 b93d b103 a03f 6371 73bf
000000a0: 86d7 133f ea82 1fbf 443a 41bf d1ae 043f
000000b0: 0f97 f23e 48a5 393e 632d a43e ecac 4c3e
000000c0: 7d14 96bf 1b5b 3b3f 081a a3be 8b7e 5a3e
000000d0: 9db9 ff3e 1e9b bebf 07c3 a73e 27bd 29bf
000000e0: c176 e33d 117e 6b3e be0b 34be 3e9b 5abf
000000f0: f991 82bd 1827 00bf d395 71bf 463b ad3e
00000100: 7f21 673e 3e05 c1be 2f36 3e3f b3ee 193f
00000110: e3eb 1cbf 272e e8bd c1d9 343f 2f4b 90be
00000120: 9da0 23bf 20b2 473f 6b4c bb3d 0254 bd3d
00000130: 3b0a 16bf b871 8a3d e60e 053f 818e 0cbf
00000140: c147 663f 3d39 febe 5d86 673e 2db0 063f
00000150: 29ae ecbe 2ebc a73f a310 1abf 4c4e 8dba
00000160: d109 43bf 1f00 a33e 4f6c 073e bded afbf
00000170: b1b7 ad3f f718 47bf 71c2 253f 472e 983f
00000180: 014b 303f cf6f 7abf
0.31209332 0.86012596 1.1689712 -0.56150335 0.90152204 0.27070335 -0.58771867 0.2860504
-0.74947757 0.743823 -0.14157483 -0.7549395 -0.54411083 1.1393859 0.9787492 -0.61364573
0.23011264 -0.7382308 0.96154875 -0.5944768 0.10578975 -0.5032064 -0.14362441 -0.21218087
-0.1609597 0.6858158 -0.3527877 -0.5293462 -0.38153547 -0.36379623 -0.44853413 -0.23339184
-0.24912523 0.04426152 -0.13679342 -0.44410533 -0.7006939 0.09068385 1.2501127 -0.9509489
0.5775074 -0.62309134 -0.7547953 0.5182925 0.47380874 0.18129456 0.32065877 0.1998784
-1.1725003 0.7318589 -0.31855798 0.21337335 0.499463 -1.4891088 0.32765982 -0.6630425
0.11106635 0.2299731 -0.17582604 -0.8539313 -0.06375498 -0.5005965 -0.9436924 0.33834285
0.22571371 -0.37699312 0.7430143 0.6012985 -0.61297435 -0.11336928 0.70644766 -0.2818236
-0.6391695 0.7800617 0.09145435 0.09244539 -0.5860936 0.067599714 0.5197586 -0.54904944
0.8995324 -0.49653044 0.2260985 0.5261257 -0.46226624 1.3104303 -0.60181636 -0.001078078
-0.76186854 0.3183603 0.1322491 -1.3744427 1.3571683 -0.7777247 0.6474982 1.1889123
0.68864447 -0.97826856

bn_cont.weight f4 [6]
00000000: 4d32 d03f d4da 9f3f 6d8c d83f b82d a83f
00000010: 7e49 1c3f 8447 be3f
1.626535 1.2488656 1.6917855 1.3138952 0.6104964 1.4865575

bn_cont.bias f4 [6]
00000000: b00f a73d bf13 d23d 4b32 183e ac11 38be
00000010: deff 3bbe cf93 1cbe
0.08157289 0.102576725 0.14862935 -0.17975491 -0.18359324 -0.1529076

bn_cont.running_mean f4 [6]
00000000: e7f3 93c2 4501 2342 fdf2 93c2 c501 2342
00000010: 3883 ad3f 7e7a 5540
-73.97637 40.75124 -73.97459 40.751728 1.355567 3.3356013

bn_cont.running_var f4 [6]
00000000: 268d 883a ff47 2f3a d63e 893a 15d1 723a
00000010: dc3c 173f 19ad 3741
0.0010418042 0.00066864485 0.0010470997 0.0009262723 0.5907724 11.47976

layers.0.weight f4 [200, 30]
00000000: 94b5 be3c 4493 903d 4377 92bd 6b48 1d3e
00000010: e486 cf3c 54d5 cc3d 461b 05be 64fd 563d
00000020: a8c4 3e3c 7e92 db3d f091 eebc 94d4 7abd
00000030: f75c cabd 19c8 64bd d91c ca3d 4dc8 b6bd
00000040: d0b2 57bd 001e 143e c6a1 2dbe e436 f0bd
00000050: 7de7 823b 3f10 dc3d 2575 9bbd 3c86 b53c
00000060: 7487 bbbd 5e27 843e 0072 863d dd35 54bd
00000070: 5b66 283e 7fcb 533e c096 903c eb9d 9e3c
00000080: cff4 413b e428 cebb 3a32 a8bc 41f8 96bc
00000090: b703 debb 881e fdbb 63a1 ba3c ed55 d83b
000000a0: 6865 95bb 7263 8e3c b2f8 22be 9281 77bc
000000b0: df94 823c b435 363a 2601 e1bb d28e c3bc
000000c0: 8694 afbc 17c3 0d3c 36da 0c3c 7869 3dbc
000000d0: 425f 8d3c 32c4 a8bb c29f c6be e332 3a3e
000000e0: eb91 d4be b3ca 9e3e a76d bebc 215c 34be
000000f0: cfca a3bc 220b c13c a36b ad3a 801c eabd
00000100: 7e9f 043e a5cd ebbd 7ca2 f6bd c323 04be
00000110: 5b13 8fbd c14b 78bc 1d5c cfbc 9959 cc3d
00000120: 73fe 02bd a41a 11be cfa4 de3d 980a 56be
00000130: 6d87 e2bc 7113 223d cd71 0b3e 0e71 5fbe
00000140: eee1 a73d 4a44 073d 2ec8 b93d c61b 16be
00000150: 1480 95bd 9e8e 983d 0140 8abc 84ca 34be
00000160: 9207 ccbc c39b aebe 3bbd a3bb 25d7 dd3c
00000170: c43d 51bd 8c79 09bd 3e22 7abd dfa0 1d3d
00000180: 1805 95bd 02bc 313d 2359 f83b 19e4 2e3b
00000190: bee2 61bc 6d25 12bd 7f9c e33d 1b2d 843d
000001a0: 76c0 963d 21e2 3e3d 5dbc c53c 91b3 abbd
000001b0: 25ec 7d3d d0fc a43b 3ca4 113d 6ce9 213c
000001c0: 8414 663d 5cb5 11bd 34db a1bc d9cd de3c
000001d0: 36d0 b63d 7c71 6d3e 5826 523d d1a5 05bf
000001e0: c1bf 143d 221e 473c e88a 543d 6835 9a3c
000001f0: ab2a a03d fd66 9abc e9e0 7fbc bce1 473c
00000200: 1d3d 433c 2ded 903c c18d 3dbb dcf8 94bc
00000210: d19a 41bd 5066 80bd 6f5a b43d 753a 793d
00000220: 3669 4bbc b13f dc3c 884e 82bd 5acb 15bd
00000230: 4cac 143d 2ffb 9f3d 3c93 58be 9e23 283d
00000240: 3026 b0be 5efa 3bbe 4c56 3ebe 8009 67be
00000250: 41ae c73c 5963 ddbe 7680 81bd 802c 51bd
00000260: 6cec 853d 9ba3 98ba 092d bc3b 9d2b b5bd
00000270: 80be 1a3c 33cd 06bd eba6 23bd 8246 99bd
00000280: 312d 5a3c 9a1d 9c3d f366 1f3e 106b 5439
00000290: a048 16be bfb8 b3bd 1d65 1ebd 6ef3 14bd
000002a0: 11b5 ab3d fd8e b53d f352 d8bc 551b 393d
000002b0: a688 1bbe 7a1b eabd 1942 05be 5499 2f3e
000002c0: 9dd8 afbe 5563 883d 4b7f 00be eb5d e5be
000002d0: 0ea1 b139 62d1 61bc 5b1b 053c 4a0e 413b
000002e0: b61b 57bb adbc 163d 8ec4 05bc 76a3 2dbc
000002f0: 36eb 09bd 6f6d 183c 1376 2c3b 6343 07bd
00000300: 5ea2 353d 12f4 bab9 9a7b 14bc 874c 33bb
00000310: f9ca d53b 47d7 103c 44ba 113c 40cb 26bd
00000320: 7dcb 173c 5a81 68bc 150f 913c 583c 95bc
00000330: c576 a8be 9511 733e dc08 263e 1d0b e1bd
00000340: ed48 693d f387 d83e 6d35 6d3a 676e 8cbd
00000350: ff72 d23c 692d 03bd f938 81bc becd 393d
00000360: d3a2 113d 862a 5e3d cb5d 9c3d d7fa 3abd
00000370: 3716 e23c f4e5 96bb b0f9 453e 660c e13c
00000380: 1bf8 24bd c18d ae3b 5608 863c cb21 9a3c
00000390: 4d03 313d 56f9 323c 911d 45bc d549 933b
000003a0: c0af 55bc 4efa 203d 1871 29bd 2fe7 85bd
000003b0: 2244 a63d acaa 133d 22ad 17be 3dc7 19bf
000003c0: f448 513e 3097 063e f706 11be b2a3 08bb
000003d0: 6b94 19bd 1fcd b8bb 62c8 3b3d 1152 aa3b
000003e0: 6e95 c03d d787 15be cf84 0cbc ef9a 05be
000003f0: 9da6 b43d bebb b7bd d05e 5c3d e207 9bbd
0.023279943 0.07059339 -0.071516536 0.15359657 0.025332876 0.100016266 -0.12998685 0.052487746
0.011643566 0.107213005 -0.029122323 -0.061237887 -0.09881013 -0.05585489 0.098687835 -0.08924923
-0.052660763 0.14464569 -0.16956243 -0.117292196 0.0039948807 0.10745286 -0.07590703 0.022158735
-0.09156695 0.25811285 0.065647125 -0.05180918 0.16445296 0.20683096 0.017650008 0.01936241
0.002959538 -0.0062914956 -0.020531762 -0.018428924 -0.006775345 -0.007724587 0.022782033 0.00660204
-0.0045592077 0.017381404 -0.15915182 -0.015106576 0.015940128 0.00069507514 -0.006866592 -0.023871813
-0.021433126 0.00865247 0.008596947 -0.01156079 0.017257337 -0.0051503414 -0.3879376 0.18183474
-0.41517577 0.31014022 -0.023245646 -0.1761327 -0.019994168 0.023564879 0.0013230931 -0.11431217
0.12951466 -0.11513833 -0.1204271 -0.12904267 -0.06986114 -0.01515478 -0.025312478 0.09978027
-0.031980943 -0.14170319 0.108712785 -0.20902479 -0.027652467 0.039569322 0.1361763 -0.2182047
0.081973895 0.03302411 0.09071384 -0.14659032 -0.072998196 0.07449077 -0.016876223 -0.17655379
-0.024905954 -0.34103212 -0.0049969233 0.027080128 -0.051084295 -0.03356318 -0.061067812 0.038483497
-0.07276362 0.04339219 0.0075789853 0.002668625 -0.01378697 -0.035680223 0.11113834 0.06453916
0.07360928 0.046602372 0.02413767 -0.08383859 0.061992783 0.0050350204 0.035557017 0.009882312
0.05617191 -0.03557335 -0.019757845 0.027197765 0.08926432 0.23187822 0.0513061 -0.5220614
0.036315683 0.01215318 0.051890284 0.018824294 0.07820638 -0.018847937 -0.015617588 0.012199815
0.011916426 0.01769122 -0.0028923603 -0.018185072 -0.047266785 -0.062695146 0.08806311 0.060846765
-0.012415221 0.02688584 -0.06362635 -0.036570884 0.036297128 0.07811581 -0.21149915 0.041049592
-0.34404135 -0.18357226 -0.18587607 -0.22562218 0.024375083 -0.4323986 -0.0632333 -0.05106783
0.065392345 -0.0011645438 0.0057426733 -0.08846209 0.009444833 -0.032910537 -0.039954107 -0.074841514
0.0133164385 0.076228335 0.15566616 0.0002025778 -0.14676142 -0.08775472 -0.038670648 -0.036364965
0.08384145 0.088651635 -0.02640674 0.04519208 -0.15188846 -0.11431022 -0.13013496 0.17148334
-0.3434495 0.06659571 -0.12548558 -0.44798216 0.00033880066 -0.013782831 0.008124198 0.002945798
-0.0032822913 0.03680103 -0.008164538 -0.010598054 -0.03367158 0.009303435 0.0026315495 -0.03302325
0.0443443 -0.0003565853 -0.009062672 -0.0027358846 0.0065244404 0.008840389 0.008894507 -0.040721178
0.009264824 -0.014190996 0.017707387 -0.01821725 -0.32903114 0.23737176 0.16214317 -0.10988448
0.056954313 0.4229122 0.00090487936 -0.06856995 0.0256896 -0.03202573 -0.015774237 0.045362227
0.035555672 0.054239772 0.07635077 -0.045649376 0.027598483 -0.0046050493 0.1933353 0.027471732
-0.040275674 0.005326957 0.016361397 0.018814942 0.04321604 0.010923704 -0.012030975 0.0044948854
-0.01304239 0.03930121 -0.04136762 -0.065382354 0.08118464 0.036051437 -0.14812139 -0.6006964
0.20437986 0.13143611 -0.14162813 -0.0020849523 -0.037495058 -0.0056396867 0.045845397 0.0051977714
0.094035015 -0.146026 -0.008576586 -0.13047384 0.088208415 -0.08971356 0.053801358 -0.07569863

layers.0.bias f4 [200]
00000000: b9a2 aabe b949 d5be 0edf 32be 321b c3be
00000010: dffd c5be 1b9b 84be dd36 4bbe 1236 003e
00000020: 7002 543d 84e0 91be 4246 7f3d acd1 aebe
00000030: 2b05 153e 0f04 aebd d716 17bc b71a 88be
00000040: ed61 8c3d 349c 943e 862a 96bd a71b 30bd
00000050: 5c13 dcbe 9165 b0be f16e 2a3d a861 c5ba
00000060: 0dd0 65be 2bb2 01be f465 a6bd 9782 2abc
00000070: 83b3 d0bd e2b9 46bc 071d a5be ebeb 68be
00000080: 5802 85bc 197c 5ebe c29a 24be e46e 18be
00000090: 4b27 99be a01f e6be 08e6 193e d72b 1abd
000000a0: 0370 b7be 0cb9 96bd 5777 9fbe 919e c43e
000000b0: 4d86 0e3d e93c 4a3e dc63 49bb 3d78 ddbe
000000c0: 66c3 46be ab2f 94bd c6e6 653b cae6 d3bc
000000d0: f5c1 81bd 26e9 32be 25cf 44bd 4797 e03b
000000e0: 545f 95be 87b2 41be 9415 673d 414b 8d3d
000000f0: e1a2 9ebe 7900 50bd 193b 53bd 9ba4 a33b
00000100: b954 303e d0fd b63d 20c8 193e bf2c aabe
00000110: 6d81 e63e ae46 01be e038 d6bd ba3c 4dbe
00000120: eccc afbe 56d3 1b3e 63d6 1fbd 5a32 123e
00000130: 570a 85be 1be1 233e 0072 f1bc 446d 983d
00000140: 42bf 453e 730e 60be 5273 d6bd a460 1fbe
00000150: 0c8b 30be f125 e9be f4c8 f4bd c9ed f23c
00000160: 4c7d 18be 3acc 59be d5c7 3abd f39c 9fbd
00000170: d871 c4bd 744c 31bf 18b3 c43d 723d da3e
00000180: 5851 403c dfe6 143e 1287 64bd 097b 3cbe
00000190: da52 bbbd 3181 d83e 834c 21be a65e a43e
000001a0: feb6 b4bd 3e2d 0bbd 406c aabc 7be3 fbbd
000001b0: ae8f 3bbe 3e5e bd3e 68e5 8ebe 6878 9ebd
000001c0: ac7a 0cbe 4e5b 0abd 4329 ac3d 8abc c4be
000001d0: c631 b9be bd1d 18be a542 70bd e15f 45be
000001e0: dc73 903e bf1b 5d3d 9057 8cbe cde9 8fbe
000001f0: af29 5cbe ed11 8c3e 3422 3abe 8416 7abe
00000200: 78bb bebe 4338 33be c30f f93c 6326 1ebe
00000210: e7f4 ccbd 4194 283d ac59 2ebe dd61 763e
00000220: fd35 74be c6c4 81be 29d6 9cbe 3271 083d
00000230: ec39 efbe ff1a a1be a966 dbbe fc82 67be
00000240: f147 2e3e 2f4e 593b 79af efbe 8ead ce3e
00000250: c428 10be ca9d c43e 3bb1 39bd f2f0 dcbd
00000260: d179 d83d 0b69 2ebe ba1e 56be 7bfe a6be
00000270: a3e2 3ebe bbf0 e7bc 3261 b4be 04f5 c4bc
00000280: 7cf0 3cbe 9c32 a43d e7a8 413e 8a32 a3bd
00000290: 9b28 3c3d 1fc1 9abd 9cda 70be 4149 623d
000002a0: 6c75 c63e aa33 25be 4614 f23e 822e e9be
000002b0: 3640 d0bd 5c65 1ebe e748 42be 785e ac3a
000002c0: c58f b9bd b2a6 e6bd 86ea 873d c449 2cbd
000002d0: 17d4 65be 1492 0fbe 7108 9fbe 333c 5cbd
000002e0: f10e 9d3e 4e5d 9abb ba46 f9bd efcd 1bbe
000002f0: cf32 0ebf c621 053e 7660 cebe b339 0bbe
00000300: 7f0c 9f3e 5d46 10be 1ec5 90be 0bb5 51be
00000310: 94d0 d1be 1ea3 2e3d 2086 80be 5f79 c2bd
-0.33327273 -0.41657808 -0.17467901 -0.38106686 -0.3867025 -0.25899586 -0.19845147 0.12520626
0.051760137 -0.28491604 0.062322862 -0.34144342 0.14552753 -0.08496868 -0.009221754 -0.26582882
0.06854615 0.29025424 -0.073323295 -0.04299512 -0.4298352 -0.3445249 0.04160971 -0.0015059011
-0.22442646 -0.12665622 -0.08124915 -0.010407112 -0.10190489 -0.012129279 -0.3224871 -0.22746246
-0.01623647 -0.21727027 -0.1607466 -0.14886051 -0.2991279 -0.44946003 0.15029156 -0.037639465
-0.35827646 -0.07359514 -0.31145737 0.38402227 0.034796048 0.19749798 -0.0030729687 -0.43255797
-0.19410476 -0.072356544 0.0035080179 -0.025866885 -0.063358225 -0.17471752 -0.04804911 0.006853971
-0.29174292 -0.18915759 0.056417063 0.06899119 -0.30983642 -0.0507817 -0.05157003 0.0049939877
0.17219819 0.0893513 0.15017748 -0.33237264 0.4502062 -0.12624618 -0.10460067 -0.20042697
-0.3433603 0.15217337 -0.039022814 0.1427702 -0.2598445 0.1600384 -0.029473305 0.07442716
0.1931124 -0.21880512 -0.10471214 -0.15564209 -0.17240542 -0.4553676 -0.11952391 0.0296544
-0.14891547 -0.21269313 -0.04560073 -0.077936076 -0.095920265 -0.69257283 0.09604472 0.42625004
0.011738144 0.14541195 -0.055792876 -0.18406309 -0.09146662 0.42286065 -0.15751843 0.3210346
-0.088239655 -0.033978693 -0.02080357 -0.12299248 -0.18316528 0.36985964 -0.27909398 -0.077378094
-0.1371867 -0.03377848 0.084063075 -0.38425094 -0.36170787 -0.14855094 -0.058657307 -0.19274856
0.28213394 0.05398154 -0.27410555 -0.28108063 -0.21500276 0.27357426 -0.1817711 -0.24422652
-0.37252402 -0.17501931 0.030403024 -0.15444331 -0.10007649 0.04115701 -0.17026395 0.2406077
-0.2384872 -0.2534544 -0.3063214 0.033311076 -0.46723878 -0.3146591 -0.4285176 -0.2260856
0.17019631 0.0033158173 -0.46813563 0.40366787 -0.14078051 0.38401634 -0.045335036 -0.10788144
0.1057011 -0.17032258 -0.20910159 -0.32616028 -0.18641143 -0.028313031 -0.35230404 -0.024042614
-0.18451113 0.080174655 0.18912087 -0.07968624 0.045937162 -0.07556366 -0.23520893 0.05524564
0.3876146 -0.1613299 0.47281092 -0.45543295 -0.10168497 -0.15468353 -0.18973123 0.0013150712
-0.09060625 -0.11262263 0.06636529 -0.042062536 -0.22444187 -0.14020568 -0.31061128 -0.053768348
0.30675462 -0.00471083 -0.12171693 -0.15215276 -0.5554628 0.13001165 -0.4030797 -0.1359623
0.3106422 -0.14089341 -0.28275388 -0.20479219 -0.40979445 0.04263603 -0.2510233 -0.09495806

layers.2.weight f4 [200]
00000000: 7e8c 493f 689b 933f a43f 3d3f bc20 743f
00000010: e2c6 783f 3fc9 473f 1674 873f 882d 603f
00000020: 2f60 543f 0882 553f 3ced 163f a4f4 7f3f
00000030: 208d 623f bf1f 373f 5355 5b3f ff30 5d3f
00000040: 845c 6d3f 247e 623f d31b 4d3f dfd7 813f
00000050: a040 943f 5ef3 463f 56c5 513f 6031 783f
00000060: acc4 773f e644 693f 75b1 553f d4fb b33f
00000070: e628 643f 8141 443f d68d 513f bf26 5b3f
00000080: 5bef 4e3f c6ae 643f aca9 923f 209c 733f
00000090: ede0 893f d0af 7e3f 77a5 303f ba35 793f
000000a0: 4dad 573f 1ce6 5c3f f67a 6a3f 6d9a 693f
000000b0: 11b7 583f 32a6 583f 25e3 343f 549e 833f
000000c0: 0f5f 3d3f 6c76 813f b383 6c3f f6c3 4c3f
000000d0: e8d8 863f 0887 a83f efb9 583f 9994 853f
000000e0: 2063 6e3f 3f2b 7f3f 03e8 703f 7e1a 443f
000000f0: c275 6b3f 601c 6d3f 1090 a43f ed1f 513f
00000100: baa6 6b3f d38d 533f 02d4 4c3f e5b3 413f
00000110: a17d 673f 1351 a83f b117 443f a3cd 483f
00000120: 37eb 463f 75f7 623f 48ae 393f 70af 473f
00000130: f773 6b3f df65 6b3f b311 5e3f 2068 3e3f
00000140: fcd2 483f c813 733f b2fe 5f3f 5272 273f
00000150: 8252 763f 5010 943f c6f5 383f ad3d 663f
00000160: 4119 653f 783f 723f 2876 813f f778 663f
00000170: 0807 5b3f 9b8a 893f c709 323f 6ed9 6a3f
00000180: 769f 633f 2442 683f 026d 9f3f a008 303f
00000190: 9f97 4c3f f333 6a3f cf83 423f 4b9f 783f
000001a0: 67cd 423f bafc 413f 655e 753f 7d06 543f
000001b0: cdaf b33f 0ca1 643f d45c 723f 7f90 693f
000001c0: b46d 5a3f 623c 403f 798b 593f 5c6e 873f
000001d0: fe35 613f e73d 5b3f 4123 313f 7dca 303f
000001e0: 2370 373f b3fb 4e3f 764a 863f 4f97 713f
000001f0: 8864 563f 6dfe 533f 2b75 b23f b442 803f
00000200: 0543 5e3f 2818 9f3f 0099 793f 9909 713f
00000210: 6261 803f ce37 723f 0942 4b3f 33c6 613f
00000220: 67bc 713f 0f59 883f 718c 503f 3c8b 803f
00000230: 6405 5f3f c725 5e3f b2c4 4b3f 68f5 6c3f
00000240: 9961 593f f102 343f 9a94 453f 5558 6d3f
00000250: 8d0d ae3f 1b2b 543f 9292 b33f 48b2 583f
00000260: e097 5e3f eb78 513f 60eb 5e3f 5bee 333f
00000270: 1e4e 3c3f 6f84 ba3f 5c5e 493f 32ec 9d3f
00000280: 0f6c 7f3f 38c5 3c3f 14dc 683f 92ef 643f
00000290: cc09 2e3f ae2c 4e3f d689 813f 5d1d 5e3f
000002a0: 5bb9 723f a03f 8f3f 79ac 733f ea7c 7b3f
000002b0: 50f1 5a3f 6f9c 413f b38c 3e3f 716d a83f
000002c0: 3ab6 463f 10a1 733f e00f 4e3f a70f 433f
000002d0: 55e3 8c3f 96d1 4f3f 557e 583f 755f 533f
000002e0: 1c6e 5c3f 8dbb 423f 10e9 6a3f c038 663f
000002f0: aa2c 6f3f 541f 753f 7f8b 7f3f 6abf 3b3f
00000300: c1a7 803f a7e8 203f 2595 663f 61cd 4d3f
00000310: 9e39 833f 20db 5b3f 85dd 5f3f 44f1 503f
0.7873 1.1531801 0.7392523 0.9536245 0.9717847 0.7804145 1.0582302 0.87569475
0.82959265 0.83401537 0.5895574 0.99982667 0.8849659 0.71532816 0.8567707 0.8640289
0.9271929 0.88473725 0.8012058 1.0144004 1.1582222 0.777151 0.81941736 0.9695034
0.9678447 0.91120756 0.834739 1.4061227 0.89124906 0.7666245 0.8185705 0.85605997
0.8083398 0.89329183 1.145803 0.951601 1.0771767 0.9948702 0.6900248 0.97347605
0.8424881 0.8628862 0.91593874 0.9125126 0.8465434 0.84628594 0.70659095 1.0282693
0.7397317 1.0114264 0.9238846 0.7998651 1.0534945 1.3166208 0.8465871 1.0435973
0.9312 0.99675363 0.9410402 0.76602924 0.9197656 0.9262142 1.2856464 0.8168934
0.9205128 0.8263828 0.80011 0.7566512 0.9042607 1.3149742 0.7659865 0.78438777
0.7770266 0.8865884 0.7253156 0.7800207 0.91973823 0.9195232 0.86745757 0.7437763
0.78446937 0.9495206 0.8749801 0.65408814 0.96219647 1.1567478 0.7225002 0.8993786
0.8949166 0.94628096 1.0114183 0.9002833 0.85557604 1.0745424 0.6954617 0.9173802
0.88915193 0.9072592 1.2455142 0.6876316 0.79918855 0.9148552 0.75982374 0.9711806
0.7609467 0.75776255 0.9584716 0.828224 1.4038025 0.8930824 0.94672894 0.9123611
0.85323644 0.75092137 0.84978443 1.0580554 0.8797301 0.8564133 0.6919442 0.6905897
0.7165548 0.8085281 1.0491474 0.94371504 0.8374715 0.828101 1.3942007 1.0020356
0.86821014 1.2429247 0.97499084 0.9415527 1.0029719 0.946164 0.79397637 0.88193053
0.94428104 1.0652179 0.81464297 1.0042491 0.871176 0.86776394 0.7959701 0.9256196
0.8491455 0.7031699 0.77179873 0.9271291 1.3597885 0.82878274 1.4029105 0.84647036
0.8695049 0.8182513 0.87077904 0.70285577 0.735567 1.4571666 0.78659606 1.2337706
0.9977426 0.7373843 0.9096081 0.89428055 0.679837 0.80536926 1.0120189 0.86763555
0.9481408 1.1191292 0.9518505 0.9823748 0.85524464 0.75629324 0.7443344 1.3158399
0.77621806 0.95167637 0.80492973 0.7619576 1.1006876 0.8117918 0.8456777 0.8256753
0.86105514 0.7606743 0.91761875 0.89930344 0.93427527 0.9575093 0.9982223 0.7333895
1.0051194 0.62855 0.90071326 0.8039151 1.0251958 0.85881233 0.87447387 0.8161814

layers.2.bias f4 [200]
00000000: 89f2 003e 65c9 3e3e 7f1d 20be 81e4 013e
00000010: a982 cf3d 8c72 3fbc 321a 863e 02b0 5b3e
00000020: 52ea fcbd f54a afbd 8045 e9be 16e0 18be
00000030: bede c4bb e681 86bd e9a8 edbd 954c 49be
00000040: 67d9 933e 72fd 4a3e 6e1b 3d3e efea 483e
00000050: 35d6 643e 228f 21be 8a81 d33b f559 513e
00000060: 6186 243e 0288 823d 8157 b93d 9ada 9b3e
00000070: 560e e8bc 8edf d73e 8be2 9d3e e824 dbbd
00000080: df2b 47bd 71a6 b5be 8dee 833e aaf5 afbd
00000090: 1f97 8b3e 9deb fa3c 10f0 ddbe 46b4 3bbd
000000a0: f7bc 5f3e 6faf eebd 30d3 d73d 5975 b23e
000000b0: 2985 183e 0c92 b63d 1202 12be 9ea5 0a3e
000000c0: b632 a33e 7fb6 473e 072b 7b3d eab7 4bbd
000000d0: 702d 6e3e 7b01 aa3e 1cee f83c 311c 573e
000000e0: ebaf c53d 4477 213e 056e 463e 8378 81be
000000f0: 529c 55be 58bb d13c 241e 893e ac11 8c3d
00000100: f27f a83d 6e14 2c3e c190 bbbd 6d3f ad3d
00000110: cd20 733e fbf8 a33e de41 cc3d 0f2f 98bd
00000120: 9ef0 dd3e 3d3d 393e 4c57 81bd 7253 0dbd
00000130: 3085 5e3d ae5a 2fbc 3024 053e 16d7 2dbe
00000140: 444a debb 5f16 be3d 10e0 70bb 5106 1dbe
00000150: 6c7c e33d 9ab4 8c3e 66c7 383e 6ec6 c0bc
00000160: 1037 873d 908e 17bd 29b3 693e 4dc3 f73d
00000170: a060 67ba 7e1a 98be 0310 ddbc 23ee 503e
00000180: c948 ae3d bd08 b83d a3a6 823e 4889 073f
00000190: a3be 6ebd 79e8 893d eab6 a8bd 8e84 7f3e
000001a0: 8edd 19be 5473 2cbe 2f81 333e 5be6 e23c
000001b0: cc1a aa3e c527 043e 50d3 76be 8824 423c
000001c0: 2a38 e3bb ad37 ccbc cf79 6a3e c78a 303e
000001d0: eacf 3e3e 8e4f 293e 204c 2b3e 1c3f d8bd
000001e0: b879 f6b9 6448 3e3e df10 95bd 8ee3 a93d
000001f0: 2a7a b53e 780b f63d 291f aa3e fd85 443e
00000200: 78d6 acbd 967c a13e 66da 133e f141 0c3e
00000210: 4e11 e93d af55 243e 6114 7fbd 9eff a53e
00000220: f4e1 fb3d 943f 9d3d 5d4e 2bbe e4da 2e3e
00000230: 8536 373e e2c8 a8bd 2e83 10bf 2e1a 1f3d
00000240: c103 3e3e 7cf5 79be e744 513e 7cbf 8c3e
00000250: 234c b13e 2176 c83d b0bf 9a3e 7fe0 423e
00000260: 3d27 79bd 075d 2d3e cfa8 853e 8e92 f63c
00000270: e7f4 973d c149 a63e 3417 6f3e fc24 823e
00000280: 76d2 5a3e ba6c 893e 3746 bf3d f7c2 6cbd
00000290: f00a b9bd 36e8 b03d e7e4 cb3c 7237 803c
000002a0: c51c 993e e54f 743e a01c a33e 5780 8ebe
000002b0: 712e 85bc eef5 653d 8e76 b93e 3f31 903e
000002c0: 98ed c93d adcf 1a3e 131b ac3e fb22 3fbd
000002d0: e516 8b3e 7d44 a7be 7c8b dbbd af6c b5be
000002e0: 4cec 6b3e b2d7 103e 5470 a1bc 3ed5 1b3d
000002f0: bbd8 11bd d42f 9c3d 3607 6d3d db88 61be
00000300: c7ab 723e fb3d d13d c309 a33d 4639 913e
00000310: 162e cf3c 88d2 a63d 2e0c 6a3e 6fd2 183e
0.1259252 0.18631513 -0.15636252 0.12684824 0.10132343 -0.011685025 0.2619186 0.2145386
-0.123493806 -0.08559219 -0.45560837 -0.14929232 -0.0060079983 -0.06567745 -0.11604483 -0.1965812
0.28876802 0.19823244 0.18467495 0.1962087 0.22347338 -0.15777257 0.0064546512 0.20444472
0.16066886 0.06373598 0.09049893 0.30440217 -0.028327148 0.42162746 0.308369 -0.10700399
-0.048625823 -0.35478547 0.25767937 -0.085917786 0.27263734 0.030629927 -0.43347216 -0.04582622
0.21849428 -0.11654555 0.10538328 0.34855154 0.14894547 0.08914575 -0.14258602 0.1353974
0.31874627 0.1950321 0.06132033 -0.04973594 0.2325952 0.33204255 0.030386977 0.21006848
0.09652694 0.15768152 0.19377907 -0.25287256 -0.20860413 0.025602028 0.26780808 0.06839308
0.08227529 0.16804668 -0.09158469 0.08459363 0.23742981 0.32025895 0.09973501 -0.07430851
0.4334764 0.18089767 -0.06315479 -0.034503408 0.054326236 -0.010702772 0.13002086 -0.1697658
-0.0067837555 0.09281611 -0.0036754645 -0.15334441 0.11107716 0.27481538 0.18044814 -0.023532119
0.06602299 -0.037001193 0.2282225 0.120977975 -0.0008826349 -0.29707712 -0.026985174 0.20403342
0.085099764 0.08986042 0.2551776 0.5294385 -0.058287274 0.06733794 -0.08238013 0.2495291
-0.15025923 -0.16840869 0.17529748 0.027697733 0.3322357 0.12905796 -0.24104047 0.01184953
-0.0069341855 -0.024928892 0.22898029 0.1724044 0.18634 0.16534254 0.16728258 -0.10558912
-0.00047011464 0.18582302 -0.072786085 0.08295356 0.35444766 0.12013906 0.33226898 0.19191737
-0.08439344 0.31540364 0.14438781 0.1369703 0.11380254 0.1604831 -0.062275294 0.32421583
0.122989565 0.07678142 -0.16729112 0.17075688 0.17891891 -0.0824144 -0.56450164 0.038843326
0.1855612 -0.24410051 0.2043644 0.2748984 0.346284 0.09788156 0.3022437 0.19030951
-0.060828436 0.16930018 0.26105353 0.03009918 0.07419758 0.32478145 0.23348695 0.25418842
0.21369347 0.26840764 0.09339564 -0.05780312 -0.09035289 0.08638041 0.024889423 0.015651438
0.29904762 0.23858602 0.31857777 -0.2783229 -0.016257497 0.05614274 0.36223263 0.28162572
0.098597705 0.15118285 0.33614406 -0.04666422 0.27165905 -0.3266944 -0.10719964 -0.35434482
0.23039359 0.14144781 -0.019706883 0.03804516 -0.03560708 0.0762631 0.057868205 -0.22024862
0.2369834 0.102169 0.07960846 0.2836401 0.02529053 0.081456244 0.22856209 0.14924024

layers.2.running_mean f4 [200]
00000000: 3f1e 903d 8e0d a83d f1b1 8f3e 7f82 113e
00000010: 08a3 5f3e 8ea6 ab3e 18df 2b3e 98b5 fb3e
00000020: b012 823e ecb7 093e a682 c33e 5ee8 bf3d
00000030: ab8b 0a3f b63d 6b3e af99 a63e 29fa eb3d
00000040: e83b 513e 80cc 223f cd59 d53e 1907 963e
00000050: eb75 be3d 9da3 3b3e 0286 913e ce71 9d3e
00000060: e34c 2b3e d28f 0c3e 4000 3f3e e4dd 0e3e
00000070: d1c1 873e cc61 863e 4f36 223e abac 043e
00000080: b1d0 9b3e 367c 053e f267 283e 8ad4 b73d
00000090: 4927 303e c3d8 8f3d eeb5 ab3e 6b03 e93d
000000a0: 5c4d bf3d 8298 603e f5fe 2e3e 96af 283f
000000b0: 8896 5b3e 723f 9b3e 765e ce3e 27b8 eb3d
000000c0: bfc1 5e3e 2e39 853e d4e2 ab3e 7ccd 9d3e
000000d0: f160 573e 6d91 423e 5983 753e cbeb 283e
000000e0: 1664 5f3e ae3e dd3d dc5a a33e 54e7 de3e
000000f0: f2cd 083e 95fb 993e cb55 173e 8e8c ad3e
00000100: 621b 3c3e 8493 c93e 33b0 b33e b472 1a3e
00000110: 7893 3a3f b677 403e aad6 693e ca4d 3c3e
00000120: e727 2e3e 71c3 133f 3707 943e 783a cc3e
00000130: 6575 3d3e 148d 983e 2d33 703e 47a5 b43e
00000140: 02dd b63e 54a1 193e 4c1b 6b3e 6f6a 363e
00000150: 944c ee3d 2ef1 393e 2f41 8e3e a80e 5d3e
00000160: e7f3 7e3e a615 8e3e fef2 4b3e 3a29 3e3e
00000170: b703 923e 226b b53b 4a19 e73e c27a 363f
00000180: 9ecf 8e3e 545d 073f 3305 133e 64cf 6b3e
00000190: 7431 4d3e f69e 333f 8188 833e eca4 9f3e
000001a0: 82d7 413e b823 9b3e 15e8 8b3e c320 5d3e
000001b0: efd6 4e3e 9be5 293f b3b9 9d3d 5e24 813e
000001c0: 39ff 503e f8b0 b23e 59b2 8b3e b8e1 083e
000001d0: 98a9 0c3e 6b65 553e 80d8 5d3e 7fdc 2f3e
000001e0: c140 1f3f ec04 a43e 42b8 4e3e 2202 6c3e
000001f0: 0777 873e f5c1 183f ed5d 313e d959 f53d
00000200: 9a29 ae3d 5d79 393e f652 913e 7ce7 fb3d
00000210: c5a0 593e dbe3 503e b2f0 833e e6b2 163f
00000220: d61c 0e3e 820c 1b3e 9c5d 9c3d 67c8 313e
00000230: a822 213e 504e e73d f8be 183d e8b8 4d3e
00000240: 965d f03e 4cc3 a73e 8a52 a13d 7c71 453f
00000250: 08f9 323e 6ef3 323f e643 123e 9917 9c3e
00000260: 3c80 9a3e 2bc9 0d3e 598a 8c3e d6ac 623e
00000270: 0aa8 1c3e b281 1a3e cd54 f03d ad69 233e
00000280: ab88 273e 7a3f c73e ddfd bb3e c6ec 9f3e
00000290: 77fb ce3e 8eba ce3e 7cd2 e93d fe58 c83e
000002a0: f101 2e3f 92a6 213e 1981 4a3f 5968 fa3c
000002b0: 6d8e 383e c484 4f3e 7130 5d3e cd1f 343e
000002c0: 6d02 b83e 3d34 823e d87e d93e 833a 9f3e
000002d0: e6a1 153e 7824 263e bf1f 213e c7f8 333e
000002e0: b22a 283f fd47 853e 6954 653e 0331 153e
000002f0: 1738 703d c3c4 ac3e c056 083e 15a2 353e
00000300: a795 913e ccd6 1b3e 2b07 2e3e 2315 603e
00000310: 7c56 5f3d f10e 523e d400 c93d 3271 153e
0.07037019 0.0820571 0.28065446 0.14209937 0.21839535 0.3352551 0.16784322 0.49161983
0.25404882 0.13449067 0.38185614 0.093704924 0.54119366 0.2297276 0.32539126 0.11522324
0.20433009 0.6359329 0.41670075 0.2930229 0.09299835 0.18324132 0.28422552 0.3075089
0.16728549 0.13726738 0.18652439 0.13951832 0.26515058 0.26246488 0.1584103 0.12956493
0.30432656 0.13035664 0.16445902 0.089760855 0.17202486 0.07023766 0.3353724 0.11377605
0.09340927 0.21933177 0.17089446 0.6589292 0.21444142 0.30321842 0.40306443 0.11509734
0.21753596 0.26020187 0.33571494 0.30820835 0.21033074 0.19000788 0.23975886 0.16496198
0.21815524 0.10802971 0.31905258 0.43535864 0.13359812 0.30074754 0.14778821 0.33896297
0.1836982 0.39370358 0.35095367 0.15082818 0.7288127 0.18795666 0.22835794 0.18389049
0.17007409 0.57720095 0.28911754 0.39888358 0.18501814 0.29795134 0.23457022 0.35282347
0.3571549 0.15002948 0.22959632 0.17814039 0.116357 0.18158409 0.27784106 0.21587622
0.24897729 0.2775089 0.19916913 0.18570414 0.2851846 0.005536453 0.45136482 0.71281064
0.27892774 0.5287678 0.14357452 0.23028332 0.20038396 0.7016443 0.25690082 0.31180513
0.18929866 0.3030069 0.27325502 0.21594529 0.20199178 0.66365975 0.07701435 0.25223058
0.2040986 0.3490064 0.27284506 0.13367355 0.1373657 0.20839469 0.2166462 0.17173956
0.6220818 0.32035005 0.20187476 0.23047689 0.26457998 0.59670955 0.17320986 0.11980028
0.085040286 0.18112703 0.28383607 0.123000115 0.21252735 0.2039942 0.25769573 0.5886673
0.13878188 0.1514149 0.07635042 0.17361604 0.15735877 0.11294234 0.037291497 0.20090067
0.469464 0.32766187 0.07877071 0.7712629 0.1747781 0.69902694 0.14283714 0.30486754
0.3017596 0.1384627 0.274493 0.22136244 0.15298477 0.15088537 0.117349245 0.15958281
0.16360728 0.38915616 0.3671712 0.3123533 0.40426227 0.40376705 0.114171 0.39130396
0.6797171 0.15786198 0.7910324 0.030567335 0.18023081 0.2026549 0.2160051 0.17590256
0.3593935 0.2543048 0.42479587 0.31099328 0.1461254 0.16224849 0.15734766 0.1757537
0.6569015 0.26031485 0.22395481 0.14569478 0.05864724 0.33743867 0.13314342 0.1773761
0.28434488 0.15218657 0.16994922 0.21883063 0.054525837 0.20513512 0.09814611 0.14593962

layers.2.running_var f4 [200]
00000000: 9ebf 723d 47ca 383d 1b95 103e 8346 633d
00000010: 572e 193e e36b 1c3e 8f7e a73e 1ab3 123e
00000020: a813 6c3e 1829 503d 4fa6 f03e 24ba 073e
00000030: 88b7 2f3e 97cc 5f3e 7444 c53e d715 cf3d
00000040: dbf0 033e 3820 383e d675 663e 28ea c13d
00000050: 76d0 113d 07a8 c13d 893c d53e 8898 043f
00000060: 3eab bf3e f5bd 103e b9d3 7e3e 2901 983e
00000070: f236 1d3e 4c3f b93e d977 f63d 9a07 333d
00000080: b801 123e 8426 293e e90c a23e 0ffd 8c3d
00000090: 9dcf 943e 4a55 b43c e7f5 343e 058f 823d
000000a0: 769f b33d 37c7 c33d a719 ab3e f06c 1f3e
000000b0: 2664 143e d85d cf3e 56b3 673e 4669 423d
000000c0: 505e 283e 89af 233f 64a8 eb3d 682c 843e
000000d0: 07cc 033f 3e87 df3e 23fb 063e b78d bc3e
000000e0: aad5 a03e 5098 b53d bf25 083f 10f2 143e
000000f0: 85da 113e 40cc d93e 0692 a83e ac6d 043e
00000100: 3e9c 153e afcf 043e d31a 1b3e 480d db3d
00000110: 34e2 413e af42 c63e ffd0 023e a6f5 de3d
00000120: a6fb 013e bff0 333e f593 cf3e d55c 143e
00000130: de5a ce3e 650b 8d3e 4745 7c3e b9cf fa3d
00000140: e6a1 353e 7918 833d c5cf ac3e bd4a 063e
00000150: e0cf 743e 3b12 be3e 80fc 253e 481f 9b3e
00000160: 8c34 b93e eb13 023e 60ab a83e 82cd f33d
00000170: 7956 d93d d924 1f3b 6408 403e 2ee3 433e
00000180: d188 ed3e 205c 353e 1a80 b33e c87c 623e
00000190: 5b73 ad3d de0a 393e f8a1 0d3e 96f9 733e
000001a0: 5ae3 043e 3ac3 8e3e 50ee d53e d0af e33d
000001b0: 57cf 023f 5e98 3d3e 682c cc3c c3f4 cd3e
000001c0: cdb0 2e3e 7f39 273e 744c 7e3e 1830 a43d
000001d0: d58f 133e 2a80 753e 5479 1f3e b1cf 3b3e
000001e0: 2506 4c3e fc62 cb3e 9477 a93e b4e3 143e
000001f0: df7a 403e 8b3e 4c3e 067e c03e 669c 1d3e
00000200: b4a9 033d 5095 b23e 8ab8 2f3f 4473 053e
00000210: a931 f83e d790 f03e 98e8 3e3e d824 363e
00000220: 71c3 3b3e d6d5 8f3d b49d b23d 778b 963e
00000230: 99d4 1d3e d684 323d 8ffb a83c 789a 813e
00000240: 5820 213e 483f be3e 3731 833d fe94 733e
00000250: f669 b53e 8ccd 473e ee7a ab3e 6d23 2c3e
00000260: 1fcb b93e 6056 e93d 5f4f 5e3e 0369 313e
00000270: 3596 f23d e3fe c23e 25e0 a83d abe9 c83e
00000280: 7d68 5f3e a725 703e cd61 f53e e338 323e
00000290: 58a1 863e 87dc 163e 46c1 3d3e a0a3 0a3e
000002a0: d774 373e 94cb c33e 0bcb 6e3e 8de7 943c
000002b0: f325 543e 8514 003e 55d5 133e d269 f33e
000002c0: 5355 003e 2bc4 dd3e 4f72 8d3e a920 e03d
000002d0: 20f6 a13e c739 da3d 91e5 9b3d af56 4e3e
000002e0: 1837 4e3e 6ab7 ea3d f5d4 373f b9f6 823e
000002f0: f2d0 503d d23f 0d3f bb63 703d 5c57 3f3e
00000300: a4f2 293e 1787 a83d 9f09 8b3e 1d9d 0d3e
00000310: bb07 d23c 1836 733e f2c7 223e 6ef6 f93d
0.05926477 0.04511478 0.14119379 0.055487167 0.14959083 0.1527553 0.32713744 0.14326134
0.23054373 0.05082044 0.47001883 0.13254601 0.17159855 0.21855389 0.38528788 0.101115875
0.12884848 0.1798104 0.22505888 0.0946849 0.035599194 0.09455877 0.41647747 0.51795244
0.37435335 0.14134963 0.24885453 0.29688385 0.15352991 0.36181104 0.12034578 0.04370842
0.14258468 0.16518599 0.31650475 0.068842046 0.29064646 0.022013325 0.1767193 0.06374935
0.08770649 0.095594816 0.3341801 0.155689 0.14491329 0.40501285 0.22627005 0.047463678
0.16442227 0.6393972 0.11506727 0.2581513 0.51483196 0.4365787 0.13181739 0.3682687
0.31413013 0.08866942 0.53182596 0.14545465 0.14243515 0.42538643 0.32923907 0.12932462
0.14610383 0.1296985 0.15146951 0.106958926 0.18933946 0.3872275 0.12775038 0.108866975
0.12693653 0.17572306 0.4054257 0.14488538 0.403037 0.27547756 0.24635802 0.12246651
0.1773754 0.06401152 0.33752266 0.13114448 0.23907423 0.37123284 0.16209602 0.30297303
0.36172903 0.1270291 0.3294325 0.11904432 0.106121965 0.0024283438 0.18753201 0.19129631
0.46393445 0.17710924 0.3505867 0.22117913 0.08469268 0.18070552 0.13831317 0.23825678
0.12977353 0.2788332 0.4178338 0.11117518 0.51097625 0.18515155 0.024923518 0.402258
0.17059632 0.16330527 0.24833852 0.08016986 0.14410336 0.23974672 0.15573627 0.18340947
0.19924219 0.39723957 0.33099043 0.14539987 0.18796872 0.19945733 0.37596148 0.15391693
0.032144263 0.3487954 0.6864096 0.13032252 0.48475388 0.46985504 0.18643415 0.17787492
0.18336274 0.07023208 0.08721486 0.29403278 0.15413131 0.043583713 0.020627765 0.25313163
0.15734994 0.37157655 0.06405871 0.23787305 0.35432404 0.19512004 0.33492225 0.16810389
0.36287782 0.11393428 0.21709965 0.17325215 0.11845056 0.38085088 0.08245877 0.39240775
0.21817203 0.23451863 0.4792618 0.17404513 0.2629497 0.14732562 0.18530759 0.1353898
0.17915665 0.38241255 0.23319642 0.018176818 0.20717601 0.12507828 0.14436848 0.47541672
0.12532549 0.43313727 0.27626273 0.109437294 0.3163309 0.106555514 0.07612146 0.20150255
0.20138204 0.11460765 0.7180932 0.2557886 0.050980516 0.5517551 0.05868886 0.18685669
0.16596466 0.08228891 0.27155778 0.13829465 0.025638452 0.23751104 0.15896586 0.12205206

layers.4.weight f4 [100, 200]
00000000: d4bd 9cbd 76fe a9bd 6aab 1a39 1062 83bd
00000010: 5b6f 173c 4382 013d bb1e 59be 86ac 883d
00000020: dbcb f9bd 5b04 a7bc 506c 38bd 76dd 8ebd
00000030: eff1 2fbd 01e9 4e3d ee59 d1bc 21fd 1a3d
00000040: c409 113d 5b61 ffbc 3ef5 b53b 7d1f 713d
00000050: c99c 21bc 25a7 5b3d e258 cbbd d21f e5bd
00000060: 2294 ffbd 9197 7ebd a7d6 02bc 8a28 dcbd
00000070: fc23 33bc 46e1 9dbc 3c6f d33a a3e9 0e3a
00000080: 4d6c d9bc 2d2e c3bd 0b3e 37be 39c4 7abd
00000090: 203e 8dbe c86d 92bd d2fd 9fbd 396c 3a3c
000000a0: c312 51bd d804 4f3d 8677 b4bd 929f ae3d
000000b0: 9453 6a3b 367f 95bd b60d 38be bc9c 1d3d
000000c0: 243e 04be f3f8 dfbd 0cb7 1fbc 28b5 a8bd
000000d0: a63b 6abe e4a8 0abe 3e24 c53c f5a8 5ebe
000000e0: e695 c4bd e87f d0bd 4c41 04be 65b0 20bd
000000f0: 41bb 333c 3bfe 8cbd ce31 86bd 4b80 143c
00000100: b6f9 eaba a04e 3fbd 5d1f 5b3d 1767 f3bc
00000110: d24a 643d 5355 adbd efa3 1d39 14c7 4b3d
00000120: f6db 0e3e 4b9d 1bbc 9483 4dbd 1fca 023d
00000130: 5ad2 20be c2d5 babd e576 a8bc 675e b5bd
00000140: 4f13 47bd 3e34 443c 7e1c b7bd fc87 16bd
00000150: 88c4 0fbd 786b 39be c50f 1b3d 9d12 b7bd
00000160: 2662 66bd 03ca acbc 1898 03be 288b c2bc
00000170: b8c9 66bd 8af2 ccbd 6446 1f3d 44f1 853d
00000180: e752 d63c 5aa2 35bc e76f 63be 4cce 883d
00000190: 264f 703d 1764 20bd 0850 1fbd 97c4 6dbd
000001a0: dbed 0c3d 8182 dcbd f761 29be 3e48 65bc
000001b0: 9abe 90bd 4ec7 01bd 8ece 17bd 2756 aabd
000001c0: 0e6d a8ba 746b 123d 2e5f 90bd 091c 223d
000001d0: b700 52bc 040c 1a3d 31a3 393d 98b2 c1bd
000001e0: b9e8 dd3b 39f9 d5bd 20d7 b6bd b034 c53c
000001f0: 5853 4b3d e3c0 733c db8a debd ad4f f0bc
00000200: 54bf bbba c657 babd d71d cbbd 5cca 03bd
00000210: af8c c7bd c493 01be 5e48 2d3d 3d27 a63c
00000220: 54ba 25bd 11de 0e3d c22a 68bd 7c17 03be
00000230: e1fd ddbc 208e 0dbd f856 96bc 7b20 cbbd
00000240: cfe1 2cbd fa4f 9bbd 389f 8e3c 513d 663d
00000250: f412 b2bd 0857 8cbb 6ce5 aebd 27b0 0bbd
00000260: a70f 0cbe 37da 17bc 618d 8e3c fcf6 aa3c
00000270: 95a6 abbb b03a 7bbd 0e31 803c 65fc 22be
00000280: 6a3b 373c 2d7f 9cbc 8dd8 d93b 7481 463c
00000290: 4001 f83c dfc6 d83c 36b0 76bd b499 a0bb
000002a0: 8aed 223e cfe1 8abd c0b2 53bb 372e 7e39
000002b0: 4d23 dcbd 81e2 b7bd 2071 0a3e 2684 bcbd
000002c0: 204b 72bd e0a3 acbd 12ff b93d 3895 bcbb
000002d0: 8b39 0cbe e0bc 113b fd69 d53c e01a 9fbd
000002e0: 6548 553d 12f0 59bb 3c7c b2bd a1d8 21bd
000002f0: 40b8 00be d51e 11be 6c95 883d 6744 86bc
00000300: 6fd4 95bd 58fc 42bd 729c 3d3d 293f b5bc
00000310: fe64 47bd c865 0cbe 307f f9bc e054 823d
00000320: b00c 25bc 8926 60be a636 293d c636 e9bd
00000330: 9b1c 4bbd badd abbd cd62 013d 70e6 65bd
00000340: a028 a4bb e58a 29bd 58f8 9fbd 90b3 1dbe
00000350: fc29 71bd 7726 54bd 246d 0dbe c2c5 2fbd
00000360: 8c38 06bd d154 4bbc 6ac1 23bd 0092 d0bd
00000370: 0250 8abe a729 9dbd 6e46 bcbd a099 cabd
00000380: 19a5 f63b 2922 0fbe d086 3c3c 0490 8139
00000390: 6c14 75bc 6c61 24bd 81a4 cd3c 1f84 f9bd
000003a0: 4869 8dbd 9a81 4abe c2fc ad3d 2891 65bd
000003b0: eec6 013d 193c 3cbd 6cfd 2cbd fb02 88bd
000003c0: 0322 83bd 297f a6bb 779c 09bd 1e0e 9ebd
000003d0: 35ba a5bc 6239 afbd 2fd1 56ba d960 e8bd
000003e0: 1dea 893d efb8 c6bd 914d 65bd a58c a0bd
000003f0: dcb8 8c3c 7ede b2bb 1d22 58bd 1820 f8ba
-0.07653394 -0.08300488 0.00014750441 -0.06415188 0.009242858 0.031618368 -0.21203129 0.06673531
-0.121970855 -0.020387819 -0.04502517 -0.06975834 -0.042955335 0.05051518 -0.025555577 0.03783906
0.035409704 -0.031174352 0.005552917 0.05886792 -0.009864041 0.0536262 -0.099290624 -0.1118771
-0.12479426 -0.062156264 -0.007985747 -0.1074992 -0.010933872 -0.019272458 0.0016131173 0.00054516847
-0.0265409 -0.09530292 -0.17894761 -0.06122229 -0.2758646 -0.07149845 -0.07812084 0.011378341
-0.051043283 0.05054173 -0.0881186 0.08526529 0.0035755383 -0.07299654 -0.1797398 0.03847955
-0.1291433 -0.10936155 -0.009748232 -0.08237678 -0.22874317 -0.13540989 0.024065133 -0.2174414
-0.09598903 -0.10180646 -0.12915534 -0.039230723 0.010969938 -0.06884428 -0.06552468 0.009063791
-0.0017927203 -0.046705842 0.053496707 -0.029712243 0.055735417 -0.0846354 0.00015033757 0.049750403
0.13951096 -0.009497951 -0.05017431 0.03193104 -0.15705243 -0.09122802 -0.020564506 -0.088558964
-0.0486024 0.011975346 -0.08940981 -0.03675078 -0.035099536 -0.18107402 0.037856836 -0.08939097
-0.056245945 -0.02109242 -0.12850988 -0.023747995 -0.056344718 -0.10007198 0.03888549 0.065401584
0.026162578 -0.011086071 -0.22210656 0.06679973 0.05866923 -0.039157953 -0.038894683 -0.05804881
0.034406524 -0.10767079 -0.16541277 -0.013994275 -0.07067604 -0.031684212 -0.03706222 -0.083172135
-0.0012849884 0.035747007 -0.07049404 0.039577518 -0.012817553 0.037609115 0.045321647 -0.09457892
0.0067721275 -0.10447926 -0.089277506 0.024072975 0.04964003 0.014877531 -0.10866328 -0.029334867
-0.0014323988 -0.09098773 -0.09917801 -0.032175407 -0.0974363 -0.12654024 0.042305343 0.020282382
-0.0404609 0.034879748 -0.056681402 -0.12801927 -0.027098598 -0.03455937 -0.018352017 -0.099183045
-0.042207535 -0.07583614 0.017409906 0.05621082 -0.08695021 -0.004282836 -0.085398525 -0.03410354
-0.13677846 -0.009268335 0.0174014 0.020869724 -0.005238364 -0.061335266 0.015648391 -0.15916593
0.011183599 -0.01910361 0.0066481293 0.012115825 0.030274034 0.026462017 -0.06022664 -0.0049011353
0.15910926 -0.06781351 -0.0032302588 0.00024240544 -0.107489206 -0.08978749 0.13519716 -0.09204893
-0.059153676 -0.08429694 0.09081854 -0.005755093 -0.13693826 0.0022237822 0.026051516 -0.07768798
0.052070994 -0.0033254665 -0.08715102 -0.039513234 -0.12570286 -0.14171918 0.06669125 -0.016390039
-0.07315909 -0.047603935 0.046291776 -0.022124844 -0.048680298 -0.13710701 -0.030456156 0.06363845
-0.010073826 -0.218897 0.041311882 -0.113874 -0.049587827 -0.083919 0.031588364 -0.056127965
-0.0050097257 -0.041392226 -0.0781104 -0.15400529 -0.05887793 -0.051794495 -0.13811165 -0.042913206
-0.03276877 -0.0124103585 -0.039979376 -0.10184097 -0.27014166 -0.0767396 -0.09193121 -0.09892583
0.0075270054 -0.13977875 0.011506751 0.00024712097 -0.014958482 -0.04013197 0.025102856 -0.12183403
-0.069048464 -0.19776002 0.08495475 -0.056046635 0.031683855 -0.04595575 -0.04223387 -0.066411935
-0.064029716 -0.0050810766 -0.033596482 -0.077175364 -0.020230392 -0.08555867 -0.0008194623 -0.11346597
0.06734107 -0.09703242 -0.055982176 -0.07839326 0.017177992 -0.005458652 -0.052766908 -0.0018930463

layers.4.bias f4 [100]
00000000: 42b6 d23e 1327 ed3e b64f c33e b55e 053f
00000010: aad6 ae3c 571b af3e 0ca3 1c3f 5168 84be
00000020: 03d3 dfbd 824d 093f c736 373e f523 d13e
00000030: 2ec8 2d3f d21f ad3e 303f 8a3e d9d1 1e3f
00000040: d371 a63e 6972 8f3e 5028 c93e ecaf 1fbd
00000050: 9da9 0b3f 597a 9b3e b3a1 a13e 588b 8c3e
00000060: 188a d8be 639d 543e d17f 0abc 13e3 133e
00000070: ecbe b73e 25c0 383f 37b4 063f 01ef a13d
00000080: 29ea 8f3e f44a b33e f8e3 8f3e bba5 233f
00000090: bc5b 8d3d e0fb 233e 53b5 e03c fdd8 823e
000000a0: d569 dd3e b86c 38be d8e5 ba3e b538 f63e
000000b0: 53a7 e93e 282d d73c fc2f 913e 3209 353f
000000c0: 7ed8 4fbd c4a2 a83d bf30 a13e ee6b 5e3d
000000d0: a0b5 f63e e0e0 983d 2961 213f 40c9 bfbd
000000e0: 94bd 3cbe c4da 1f3f af30 1e3f 2992 1d3f
000000f0: a603 943e 3d9c 57be 89e8 1ebd d012 a33e
00000100: 3ab6 0a3e bf53 82be 7c08 883e 6fcb 78bc
00000110: 9f3a 853e f675 e33e fd3f 0c3f 4d1a 453e
00000120: 86cf 043f 9907 a13e 55da 033f b8d8 af3e
00000130: 8c8d e63e 0904 0e3f ad8e b13e ea1e ff3e
00000140: 72e0 5f3e d953 cbbc 20c6 e33e 4532 bf3e
00000150: 9e4a b63e 60f5 303e 59a5 bfbc 85c2 923e
00000160: b31d 383e d6a0 c03d 307a 2e3e 5485 96bd
00000170: f03c 6f3e 1b07 56bd effb e1bd 5802 8f3e
00000180: 8963 d13e fb50 0f3f b2be c83e 8d67 cb3e
0.41154677 0.46318874 0.38146752 0.52097636 0.021342594 0.34200546 0.6118629 -0.25860837
-0.10928919 0.5363389 0.1789199 0.40847746 0.67883575 0.3381334 0.27001333 0.6203895
0.32508716 0.28016976 0.39288568 -0.03898613 0.54555684 0.3036678 0.3156868 0.2745006
-0.42292857 0.20763163 -0.008453325 0.1444209 0.3588785 0.7216819 0.52618736 0.079069145
0.28108338 0.35018122 0.28103614 0.6392476 0.069022626 0.16014051 0.027430212 0.25556174
0.43244806 -0.18010223 0.36503482 0.4809014 0.4563547 0.02626665 0.28356922 0.70717156
-0.050743572 0.0823417 0.31482503 0.05430215 0.48185444 0.074647665 0.6303888 -0.09364557
-0.18431693 0.62443185 0.61793035 0.6155115 0.28909034 -0.21055694 -0.03879598 0.3185029
0.13546076 -0.25454518 0.26568973 -0.015185221 0.26021287 0.44425935 0.5478514 0.19248314
0.51879156 0.3145111 0.51505023 0.3434503 0.45029867 0.5547491 0.34679165 0.49828273
0.21862963 -0.024820255 0.44487095 0.3734304 0.35603803 0.17281103 -0.023394274 0.28664032
0.1798008 0.09405677 0.17038798 -0.07349649 0.2336309 -0.05225287 -0.11034381 0.27931476
0.40896252 0.5598294 0.3920799 0.3972744
