02-ANN-Artificial-Neural-Networks/model_files/2l-REGRESSION-TaxiFareModel.pt (torch, 119194 bytes, 21 tensors)

embeds.0.weight f4 [24, 12]
0	0x3f09dc32	0.53851616
1	0xbdc9855d	-0.0983989
2	0xbef9a5af	-0.4875922
3	0x3f29c255	0.6631215
4	0x3f361d34	0.7113831
5	0xbee5f8a5	-0.44916263
6	0x3fb38859	1.4025985
7	0x3db300db	0.087403975
8	0xbf939569	-1.1529971
9	0x3f9d8723	1.2306865
10	0x3f0786a1	0.529398
11	0xbe90b9e1	-0.28266814
12	0x3e1889d6	0.1489633
13	0xbfb5179f	-1.4147834
14	0x3e84d5c5	0.25944343
15	0x3f0d723f	0.5525245
16	0xbeadb9dc	-0.33930862
17	0xbfb29085	-1.3950354
18	0x3f96d54f	1.1783847
19	0xbf17004c	-0.5898483
20	0x3deeb357	0.116553
21	0x3f9cc55d	1.224773
22	0xbf0fdfde	-0.5620097
23	0x3f0009c3	0.50014895
24	0x3ecaa181	0.39576343
25	0xbf979f96	-1.1845577
26	0xbed10f46	-0.40831965
27	0x3e92ab8c	0.28646505
28	0xbe011b77	-0.12608133
29	0xbf32f1e5	-0.6990035
30	0xbfaa9e61	-1.3329583
31	0xbf837615	-1.0270411
32	0xbf6beeab	-0.92161053
33	0x3e99bd26	0.3002712
34	0xbf71cf8c	-0.94457316
35	0x3f3f3f9b	0.7470643
36	0xbf9cb523	-1.2242779
37	0xbea52e49	-0.32261875
38	0xbf953f59	-1.1659957
39	0x3fad0b13	1.3519005
40	0xbe6395fb	-0.22225182
41	0x3e870b5d	0.26375857
42	0x3ef56a87	0.47932836
43	0x3f566af0	0.83756924
44	0x3f11a969	0.56899124
45	0x3e1b9fe2	0.15197709
46	0x3e8c425f	0.27394387
47	0xbe71bee3	-0.23607974
48	0xbf874285	-1.0567175
49	0xbf79087e	-0.97278583
50	0x3fb2c40f	1.3966082
51	0xbface85e	-1.3508413
52	0xbea665dc	-0.32499588
53	0xbfc09415	-1.5045191
54	0xbed15234	-0.40883029
55	0x3f97b05f	1.1850699
56	0x3da11cf1	0.07866848
57	0xbf348bfc	-0.705261
58	0x3f5024a4	0.8130591
59	0x3ef50519	0.47855452
60	0x3e975e94	0.29564345
61	0xbead7691	-0.3387952
62	0x3f45d0a3	0.7727148
63	0xc0233f4a	-2.5507379
64	0xbe02c6c0	-0.1277113
65	0xc010f824	-2.2651453
66	0xbfe5ff35	-1.7968508
67	0x3beaeaac	0.0071690883
68	0xbf8ee6d0	-1.1164188
69	0x3f358e9d	0.70920736
70	0x3e064de0	0.13115644
71	0x3f4bb8d6	0.7957891
72	0x3e8b5fd8	0.2722156
73	0x3f8c9d88	1.0985575
74	0x3f1cc107	0.61232036
75	0xbf2207ce	-0.6329316
76	0xbf11a8bc	-0.56898093
77	0xbf0c6e69	-0.5485597
78	0x3f1e292c	0.61781573
79	0xbe4dc185	-0.20093353
80	0x3fcb4911	1.5881673
81	0xbfa891c1	-1.316948
82	0xbe176796	-0.14785609
83	0x3f966c43	1.1751789
84	0x3fda772c	1.7067618
85	0xbe89402c	-0.26806772
86	0x3df05f6b	0.117369495
87	0xbf8ea4fd	-1.11441
88	0xbf4a2eb9	-0.78977543
89	0x3c3b2fa9	0.011424937
90	0x3f2ad22c	0.66726947
91	0xbf9ed1f4	-1.2407823
92	0xbf1f0895	-0.6212247
93	0xbf71407d	-0.94239026
94	0xbee55a6c	-0.4479555
95	0xbf8b7e3a	-1.0897896
96	0xbf35de5f	-0.71042436
97	0xbf6e2c34	-0.930362
98	0x402505f1	2.5784876
99	0x3faee9f9	1.3665153
100	0x3ddecc30	0.108787894
101	0xbf3e211e	-0.7426928
102	0xbf0a188c	-0.53943706
103	0x3e1b3084	0.15155226
104	0x3f004b6d	0.5011509
105	0x3fa5da49	1.295724
106	0x3f0ca9b7	0.54946464
107	0xbf0b0400	-0.5430298
108	0x3f92d96c	1.1472602
109	0x3d899a3b	0.0671887
110	0x3f9b8ca7	1.2152299
111	0xbe113da5	-0.14183672
112	0xbfa22302	-1.2666934
113	0x3f2678e6	0.65028226
114	0xbe60204e	-0.21887323
115	0xbf819285	-1.0122839
116	0x3f62a626	0.8853477
117	0x3fbb2b8f	1.4622668
118	0xbfa36257	-1.2764386
119	0x3e9092c9	0.28236988
120	0xbeb556b1	-0.35417703
121	0x3fc71b8c	1.5555282
122	0xbed3c40e	-0.41360515
123	0xbeb787f5	-0.35845914
124	0x3f202b99	0.62566525
125	0xbf633166	-0.8874725
126	0xbf8295e2	-1.0201991
127	0x3f3209b1	0.6954604
128	0x3ebd1018	0.3692634
129	0xbf0ac851	-0.5421191
130	0xbfdf7a49	-1.7459193
131	0xbf10785c	-0.56433654
132	0x3ec8a92b	0.39191565
133	0x3f6cc88a	0.924935
134	0xbf4ae32e	-0.792529
135	0x3fee1452	1.8599951
136	0x3f52851a	0.82234347
137	0x3f7a12c2	0.9768487
138	0x3f736488	0.95075274
139	0xbf85d311	-1.0455037
140	0xbfa4862b	-1.2853445
141	0xc00034c2	-2.00322
142	0xbbc2bc80	-0.005942881
143	0xbf2d0f21	-0.6760121
144	0xbfb81387	-1.4380959
145	0xbe4a7b2a	-0.19773546
146	0x3f60b356	0.87773645
147	0x3f67b832	0.90515435
148	0xbca0e2a2	-0.019639317
149	0x3f8b4ceb	1.0882849
150	0xbf861b23	-1.0477031
151	0x400d6954	2.2095537
152	0xbeaab48f	-0.3334088
153	0x3ec8144c	0.39077985
154	0x3fa9b320	1.325779
155	0xbfb54e0b	-1.4164442
156	0x3fe0d8c9	1.7566158
157	0x3e81fc1d	0.2538766
158	0xbf3eb042	-0.744877
159	0xbf80f02c	-1.0073295
160	0xbf803c67	-1.0018433
161	0xbe20d615	-0.15706666
162	0x3e5817d6	0.21102843
163	0x3f0443aa	0.5166575
164	0xbd83b03a	-0.06430097
165	0x3d197503	0.037465107
166	0xbfd6bbd3	-1.6776069
167	0xbfca3cc3	-1.5799793
168	0x3e7f8e9b	0.24956743
169	0xbfb3a065	-1.4033324
170	0x3f87d91d	1.0613133
171	0x3f768c05	0.963074
172	0xbfda4ef1	-1.7055341
173	0x3cd53be5	0.026029537
174	0x3fab0886	1.3361976
175	0xbeb8aaa1	-0.3606768
176	0xbf91f286	-1.1402137
177	0x3eed71c3	0.46375856
178	0x3f8db911	1.1072103
179	0xbf62b10b	-0.88551396
180	0x3ba6e412	0.005093106
181	0xbe9d42d9	-0.30715063
182	0xbd31d5f8	-0.043416947
183	0x3e1ff3a5	0.15620287
184	0x3f654789	0.8956228
185	0x3f7d1c5c	0.988714
186	0xbe0f89f9	-0.14017476
187	0xbff2eeee	-1.8979166
188	0x3e9e7f3d	0.3095645
189	0xbf54827a	-0.8301159
190	0xbfce4187	-1.6113747
191	0xbf4af4fb	-0.7928006
192	0xbfb7d553	-1.4361976
193	0xbfb1d634	-1.3893495
194	0xbf18d286	-0.59696233
195	0xbfb23414	-1.3922143
196	0xbf80f65c	-1.0075183
197	0xbbc2aa8f	-0.0059407423
198	0x3f9a0cbf	1.203514
199	0x3fe3531d	1.7759739
200	0xbcb38b14	-0.021916904
201	0x3e9bd074	0.30432475
202	0xbee3d831	-0.44500878
203	0xbece9961	-0.40351394
204	0xbece7f8f	-0.40331694
205	0xc005f1de	-2.0928874
206	0xbf8042ea	-1.002042
207	0xbf9e1034	-1.2348695
208	0x3e5fedab	0.21868007
209	0x3ed82a70	0.42219877
210	0xbfc1dbf3	-1.5145248
211	0xbe4603e1	-0.19337417
212	0xbf51a3da	-0.8189064
213	0xbee367d4	-0.44415152
214	0xbef32f06	-0.47496814
215	0x3fa4483d	1.2834545
216	0xbfd6558e	-1.6744859
217	0xbf3a8c76	-0.72870576
218	0xbf04115d	-0.51588994
219	0xbf843cf9	-1.0331107
220	0x3f4f10b8	0.80884886
221	0xbedbac68	-0.42904973
222	0x3ee49823	0.4464732
223	0xbdbc5027	-0.09194975
224	0xbf74526d	-0.9543827
225	0x3d0f3566	0.034963034
226	0xbf8e9fbd	-1.1142498
227	0xbf6e7dcc	-0.931607
228	0xbfc4c189	-1.5371562
229	0x3ed42b45	0.41439262
230	0xbf6c285f	-0.922491
231	0xbeae1b55	-0.34005228
232	0x3ebc7f33	0.36815795
233	0x3e6e5e60	0.23278189
234	0x3ff7ba02	1.935364
235	0xbea0bbe6	-0.31393355
236	0x3fafceda	1.3735001
237	0xbec93a3a	-0.39302236
238	0x3d202785	0.03910019
239	0x3f9ce5b2	1.2257597
240	0xbfeb0545	-1.8360983
241	0xbf143bb3	-0.57903594
242	0x3d4faa05	0.050699253
243	0xbf33e15f	-0.70265764
244	0xbe89353a	-0.2679842
245	0x3c605bef	0.013693794
246	0xbf197648	-0.5994611
247	0xc01f6c06	-2.4909682
248	0x3f0b41c3	0.5439722
249	0x3f226a89	0.6344381
250	0xbf5e7d27	-0.8690972
251	0x3f87b0b8	1.0600805
252	0xbfa0aaf6	-1.2552173
253	0xbe229caa	-0.15880075
254	0xbf912deb	-1.1342138
255	0xbeb03c9a	-0.34421235

embeds.1.weight f4 [2, 1]
0	0xbdee456f	-0.11634337
1	0x3eac8253	0.3369318

embeds.2.weight f4 [7, 4]
0	0x3ec4a337	0.38405773
1	0x3e7486ed	0.23879595
2	0x3f549a76	0.8304819
3	0xbfd397e2	-1.6530726
4	0x3ee2c60d	0.44291726
5	0xbf2bd4dd	-0.6712168
6	0x3f8aea8a	1.0852826
7	0x3edeef3c	0.43541896
8	0x3fbf721c	1.4956698
9	0xbfa265ef	-1.2687358
10	0xbfae8499	-1.3634216
11	0x3ed70fcb	0.42004237
12	0x3f2a1e0d	0.66452104
13	0xbe52af5d	-0.20574708
14	0xbff9ed91	-1.9525625
15	0xbfcac6ce	-1.584192
16	0xbf14e81d	-0.58166677
17	0xbf0861eb	-0.5327441
18	0x3fc416ca	1.5319455
19	0x3f0e856e	0.5567235
20	0x3fc2188d	1.5163742
21	0xbf2c8aeb	-0.6739947
22	0xbf9f0a07	-1.2424935
23	0xbeb8e2be	-0.3611049
24	0x3f50efbc	0.81615806
25	0xbf534d2a	-0.8253962
26	0xbf12498c	-0.57143474
27	0x3e2ac485	0.16676529

embeds.3.weight f4 [14, 7]
0	0x3dfb3fd2	0.12268032
1	0x3f8f685e	1.1203725
2	0x3f9a388f	1.204851
3	0xbe94fbed	-0.29098454
4	0x3f87057c	1.0548549
5	0x3f1bfcc4	0.60932565
6	0xbf861b10	-1.0477009
7	0x3e531f49	0.20617403
8	0xbf6c18d3	-0.9222538
9	0x3f1b2694	0.6060574
10	0x3eb2e596	0.34940785
11	0xbf44fac6	-0.7694515
12	0xbf00c08f	-0.5029382
13	0x3f8f2477	1.1183003
14	0x3f44317d	0.76638013
15	0xbe2ff8f6	-0.17184815
16	0x3e8096c6	0.2511503
17	0xbf1b0a9a	-0.6056305
18	0x3f5e18ed	0.86756784
19	0xbec62861	-0.38702682
20	0xbf08f58b	-0.5349967
21	0xbfa948f8	-1.3225393
22	0x3e666df7	0.22502886
23	0x3e9b4d35	0.30332342
24	0xbedfc7cf	-0.4370713
25	0x3fa117b3	1.2585357
26	0xbecd3e60	-0.4008665
27	0xbf4fbcb6	-0.81147325
28	0xbf0c1d26	-0.54731977
29	0xbee2a0cc	-0.44263303
30	0xbea440dd	-0.32080737
31	0xbeda1c6d	-0.42599812
32	0xbebfb98e	-0.37446254
33	0xbd8c6ea2	-0.06857039
34	0xbe94f5c3	-0.2909375
35	0xbe03e6e7	-0.12881051
36	0xbf8acbad	-1.0843407
37	0x3f16af7e	0.5886153
38	0x3faf24a7	1.368306
39	0xbfaf95bb	-1.3717569
40	0x3f3faacd	0.74869996
41	0xbf2cbe5d	-0.6747797
42	0xbf233e21	-0.63766676
43	0x3dd33dd8	0.1031453
44	0x3ef0efc4	0.47057927
45	0xbcba822e	-0.022767153
46	0x3f10139b	0.56279916
47	0xbecf817f	-0.40528485
48	0xbf794edc	-0.97385955
49	0x3f5271d8	0.8220496
50	0xbf548d08	-0.83027697
51	0x3ea850d0	0.32874155
52	0x3f396f96	0.7243589
53	0xbfbfe1b5	-1.4990755
54	0x3f346635	0.70468456
55	0xbf1ac364	-0.6045439
56	0x3e32d9ed	0.17465945
57	0x3d31cd0c	0.04340844
58	0xbe9102a5	-0.2832233
59	0xbfb4bb1b	-1.41196
60	0x3e27465f	0.16335438
61	0xbf2cc0cc	-0.67481685
62	0xbf664ca8	-0.8996072
63	0x3ec2bea8	0.38036084
64	0x3f10152b	0.562823
65	0xbf06f885	-0.5272296
66	0x3f904203	1.1270145
67	0x3f80f3ae	1.0074365
68	0xbf683169	-0.90700394
69	0xbdc63773	-0.09678545
70	0x3fa5794b	1.2927641
71	0xbe9a7688	-0.30168557
72	0xbf2fee0b	-0.687226
73	0x3f981b51	1.1883336
74	0x3d9f9621	0.07792307
75	0x3e8c3955	0.2738749
76	0xbf8fb16c	-1.122602
77	0x3d3b4682	0.04572154
78	0x3f21fbe0	0.63274956
79	0xbf57f02a	-0.84350836
80	0x3fa8b1b0	1.3179226
81	0xbf39e93a	-0.726215
82	0x3ec9179f	0.39275834
83	0x3f91e305	1.1397406
84	0xbf27d8a4	-0.6556494
85	0x3fda5d6c	1.705976
86	0xbf3ca9f5	-0.73696834
87	0xba1f25b7	-0.00060709886
88	0xbf630ed9	-0.8869453
89	0x3eaf3953	0.34223422
90	0x3e8802ae	0.26564544
91	0xbfaf9795	-1.3718134
92	0x3fb54547	1.4161767
93	0xbf80c262	-1.0059321
94	0x3ea05486	0.31314486
95	0x3fc360c4	1.5263906
96	0x3eda293a	0.42609578
97	0xbf9dc7b8	-1.2326574

bn_cont.weight f4 [6]
0	0x3f8f7b67	1.1209534
1	0x3f85b278	1.0445089
2	0x3f9ce382	1.225693
3	0x3f7fd52d	0.99934655
4	0x3f47e148	0.78078127
5	0x3fa8bfcf	1.3183535

bn_cont.bias f4 [6]
0	0xbceae36a	-0.028672893
1	0x3d51193e	0.051049463
2	0xbd250f1e	-0.04029762
3	0xbd93fb1f	-0.07225632
4	0xbdc079a8	-0.09398204
5	0xbe0f2ab8	-0.1398114

bn_cont.running_mean f4 [6]
0	0xc293f3eb	-73.9764
1	0x4223014c	40.751266
2	0xc293f2fc	-73.97458
3	0x422301c4	40.751724
4	0x3fad5d51	1.3544103
5	0x40555b16	3.3336844

bn_cont.running_var f4 [6]
0	0x3a878bef	0.0010341386
1	0x3a2ef1b4	0.000667359
2	0x3a893f27	0.0010471091
3	0x3a723f44	0.00092409947
4	0x3f1683c7	0.58794826
5	0x413690d8	11.410362

layers.0.weight f4 [200, 30]
0	0x3d95a1f0	0.07306278
1	0xbd481d83	-0.04885627
2	0xbdec1066	-0.11526565
3	0x3e271a80	0.16318703
4	0xbd88eeb9	-0.06686158
5	0x3e12a75c	0.14321655
6	0xbd931b17	-0.07182901
7	0x3d6d5e95	0.05795153
8	0xbd4d0aa7	-0.050058987
9	0x3d85f279	0.065403886
10	0xbe1a96f3	-0.15096645
11	0xbd49e1d2	-0.049287625
12	0xbd98818a	-0.074465826
13	0xbd516998	-0.051126093
14	0xbb1b0697	-0.002365505
15	0xbcbee164	-0.023300834
16	0xbd8dabe7	-0.069175534
17	0x3dd52c30	0.10408819
18	0xbdf847f7	-0.12123101
19	0xbe104ff0	-0.14092994
20	0xbdc8a083	-0.0979624
21	0x3e2b71cf	0.16742633
22	0xbe59b4e9	-0.21260418
23	0xbd288668	-0.041143805
24	0xbdf97c00	-0.12181854
25	0x3e1f46b0	0.15554309
26	0xbe0da713	-0.13833265
27	0x3d00c594	0.031438425
28	0x3dc0a633	0.094067
29	0xbd305aeb	-0.043055456
30	0xbd884508	-0.06653792
31	0x3dab0d06	0.083520934
32	0xbcaa9691	-0.020823749
33	0xbcf4aef3	-0.029868579
34	0x3d357446	0.04430034
35	0xbd4ce2b1	-0.050020877
36	0xbd71638c	-0.058932826
37	0xbb0d5c0f	-0.0021569764
38	0xbdc4f4f7	-0.09617036
39	0xbdb00b41	-0.085958965
40	0x3d0d71d2	0.034532376
41	0xbce05936	-0.02738629
42	0xbd44177e	-0.047873966
43	0xbde09078	-0.10965055
44	0x3d894c04	0.06703952
45	0xbda14fb2	-0.07876529
46	0xbdace9de	-0.08443044
47	0x3d9731c0	0.07382536
48	0xbce2bed8	-0.027678892
49	0x3dbec4ae	0.093148574
50	0xbd6b6e69	-0.057478342
51	0x3c3c4b68	0.011492588
52	0xbbc060bd	-0.005870907
53	0x3c326657	0.0108886575
54	0xbddb53e9	-0.10709364
55	0x3db62040	0.0889287
56	0xbdc08231	-0.09399832
57	0x3de0c4c1	0.10975028
58	0x3e09697d	0.13419147
59	0xbee98f38	-0.4561708
60	0x3ca70758	0.020389244
61	0x3dd8a79b	0.10578843
62	0x3cdd5029	0.027015762
63	0xbdb3ee00	-0.08785629
64	0x3df4cd44	0.11953214
65	0xbe052eb3	-0.13006096
66	0xbd226b1f	-0.03965294
67	0xbdb322b1	-0.08746851
68	0xbc8402dc	-0.016114645
69	0xbd360009	-0.044433627
70	0xbd9932c2	-0.074803844
71	0x3da92035	0.08258096
72	0x3b5d44ca	0.0033762925
73	0xbe105847	-0.14096175
74	0x3dbe9278	0.093052804
75	0xbe06f03e	-0.13177583
76	0x3c25737a	0.010098333
77	0x3d795baa	0.060878433
78	0x3e0a8397	0.1352676
79	0xbe30bd60	-0.17259741
80	0xbde66a07	-0.11250692
81	0xbd1434f6	-0.03618332
82	0xbc292056	-0.010322651
83	0xbddaf7c3	-0.10691788
84	0xbe015597	-0.12630306
85	0x3eb673a8	0.35635114
86	0xbdf3f2b7	-0.119115286
87	0xbcd49278	-0.025948748
88	0xbd609bbe	-0.054836027
89	0xbd7071cf	-0.058702286
90	0xbceedf70	-0.029159278
91	0x3dcef19b	0.10104676
92	0xbc129e26	-0.008948838
93	0x3dc3f2f7	0.09567826
94	0xbd7d1519	-0.0617877
95	0x3df539e7	0.119739346
96	0x3c066534	0.00820284
97	0xbd04e735	-0.03244706
98	0x3d9d7b93	0.076895855
99	0x3d20aba1	0.039226178
100	0x3a743a6c	0.0009316567
101	0xbde85dbf	-0.11346006
102	0xbd5a82c9	-0.053347383
103	0x3d910273	0.07080545
104	0x3d3cce08	0.046094924
105	0x3dab63d4	0.0836865
106	0xbd28de30	-0.04122752
107	0xbddc6635	-0.10761682
108	0x3d357be4	0.044307604
109	0xbd809e8b	-0.0628024
110	0x3de5e1c8	0.11224705
111	0xbb003ec5	-0.0019568664
112	0xbd7c5ed8	-0.061613888
113	0xbd09dbde	-0.033656947
114	0x3e0313f7	0.12800585
115	0x3d9eae01	0.07748032
116	0x3dde64ef	0.10859095
117	0xbd943dcb	-0.072383486
118	0x3e0c0e6a	0.13677374
119	0xbed09cdb	-0.4074467
120	0x3e04b504	0.12959677
121	0xbd4af0af	-0.04954594
122	0x3cfaee0f	0.030631093
123	0x3b261fa3	0.0025348447
124	0x3e33a7d0	0.17544484
125	0xbe473431	-0.19453503
126	0xbd53b1ca	-0.051683225
127	0x3cbfe77e	0.023425814
128	0x3e22479f	0.15847634
129	0x3dccdc64	0.10002974
130	0x3d2684bc	0.04065393
131	0xbdc600e7	-0.09668141
132	0x3e268d97	0.1626495
133	0xbc334361	-0.010941357
134	0x3e0d8916	0.13821825
135	0x3e2da209	0.16956343
136	0xbd71fa6c	-0.05907671
137	0x3d02f8a9	0.031975422
138	0x3e23319a	0.1593689
139	0xbd817aeb	-0.06322273
140	0x3dc927d7	0.09822052
141	0x3e565fa9	0.20934929
142	0xbdc4e14b	-0.09613284
143	0x3e19581a	0.14975014
144	0xbd4ce6e6	-0.05002489
145	0xbe37d1f0	-0.17951179
146	0xbc7ee000	-0.015556335
147	0xbe30e7f0	-0.17275977
148	0x3e0e9e4b	0.13927571
149	0xbe6325e5	-0.22182424
150	0xbdd14c29	-0.102196045
151	0x3d099a2a	0.033594288
152	0x3dc1a0cb	0.09454497
153	0xbca7cbe7	-0.02048297
154	0xbbf39588	-0.007433597
155	0xbde13758	-0.10996884
156	0xbdc27236	-0.0949444
157	0xbc79b4e0	-0.015240878
158	0x3c82f913	0.015987908
159	0x3d0b0237	0.03393766
160	0xbd1ab92d	-0.037774254
161	0x3d4e5a5a	0.050379135
162	0x3e07f5d8	0.13277376
163	0xbd531175	-0.05153032
164	0xbe0fe31f	-0.14051484
165	0xbd0626f4	-0.032751992
166	0xbdb56f5b	-0.0885913
167	0xbe06f78c	-0.13180369
168	0x3d8398ca	0.064256266
169	0x3e0d751d	0.13814206
170	0x3d1bccb9	0.038037036
171	0x3c0fbb9d	0.008772758
172	0xbe145c94	-0.14488441
173	0xbdd25021	-0.102691896
174	0x3e80b102	0.25135046
175	0x3dd09542	0.10184719
176	0xbe9723b6	-0.29519433
177	0x3e206f59	0.15667476
178	0xbc89605d	-0.016769582
179	0x3be9e777	0.0071381885
180	0xbdc7fd19	-0.097650714
181	0xbd9401a0	-0.072268724
182	0x3d8fb45b	0.07016822
183	0x3cc66595	0.02421836
184	0xbc64b55f	-0.013959258
185	0x3d9121cc	0.07086524
186	0x3d7664b6	0.06015464
187	0x3a0820b2	0.000519286
188	0xbdbcc732	-0.09217681
189	0xbc941606	-0.018076908
190	0x3bb494f6	0.0055109216
191	0x3c9a27ea	0.01881786
192	0x3c0ca6fa	0.008584732
193	0xbd32d216	-0.043657385
194	0x3e0597ee	0.13046238
195	0x3d54e126	0.05197253
196	0x3d80cd50	0.0628916
197	0x3cd6f730	0.026240915
198	0xbd10be61	-0.03533781
199	0xbda3aab2	-0.07991542
200	0x3d6b3bec	0.057430193
201	0x3d4a1136	0.04933282
202	0x3d646ec9	0.055769715
203	0xbe0f4405	-0.13990791
204	0xbd8598fe	-0.065233216
205	0x3d3482e6	0.044070147
206	0x3e116d7c	0.14201921
207	0xbd03e1a6	-0.032197617
208	0x3d905c4a	0.07048853
209	0x3e91366a	0.28361827
210	0x3ca2f5d4	0.01989261
211	0xbdb1d312	-0.086828366
212	0x3e12f3f9	0.1435088
213	0xbdeccc9c	-0.11562464
214	0x3cb4064b	0.021975657
215	0x3dd4e2cc	0.103948206
216	0xbce55ab7	-0.027997358
217	0xbc8d98bd	-0.017284745
218	0x3d9fa45e	0.077950224
219	0xbd8ff4ce	-0.07029115
220	0x3ca21efe	0.019790169
221	0xbdacf476	-0.08445065
222	0x3e0676d9	0.13131274
223	0x3ce701a8	0.028199032
224	0xbd64461f	-0.055730935
225	0xbc0f1931	-0.008734033
226	0xbddc1135	-0.107454695
227	0x3d1a6fc4	0.037704244
228	0x3d40dc09	0.047084842
229	0x3de1472c	0.10999903
230	0xbe10b4f0	-0.14131522
231	0x3d3eb10d	0.046555568
232	0x3cccb7e1	0.024990024
233	0x3d7e5ac4	0.06209828
234	0xbdacfeaf	-0.084470145
235	0xbd070bde	-0.0329703
236	0x3bb5e759	0.0055512604
237	0x3e6cfe49	0.23143877
238	0xbe0fa3b9	-0.14027299
239	0xbeaf0245	-0.3418142
240	0x3e101f90	0.1407454
241	0x3d024e9e	0.031813256
242	0xbdc617f2	-0.09672536
243	0xbddb5812	-0.107101575
244	0xbda6a0ce	-0.0813614
245	0xbdb1a183	-0.08673384
246	0xbc22954f	-0.009923293
247	0xbb239800	-0.0024962425
248	0x3da99a29	0.08281357
249	0xbdc37c42	-0.09545185
250	0x3da09404	0.07840732
251	0xbd713cc2	-0.058895834
252	0x3c59f279	0.013302439
253	0xbdabba5a	-0.08385153
254	0x3ddecbdc	0.10878727
255	0xbda3a72d	-0.079908706

layers.0.bias f4 [200]
0	0xbde805a9	-0.113292046
1	0x3e19c2fe	0.1501579
2	0xbd674958	-0.05646643
3	0xbd8d3f4b	-0.06896838
4	0xbe1de877	-0.1542071
5	0xbe42923f	-0.19001101
6	0xbd55bd07	-0.052182224
7	0x3e0de787	0.13857852
8	0x3dea817a	0.11450477
9	0x3ce50534	0.027956583
10	0x3d174f2e	0.036940746
11	0xbb855c91	-0.0040698727
12	0x3deacd2a	0.11464913
13	0x3da01548	0.07816559
14	0x3e34b73b	0.17648022
15	0xbd39ee14	-0.045393065
16	0xbcdffcc3	-0.027342206
17	0x3e463720	0.19356966
18	0xbd59078f	-0.052985724
19	0x3e3443fd	0.1760406
20	0xbc5c6719	-0.013452315
21	0x3e4d8cda	0.20073262
22	0x3e0db018	0.13836706
23	0x3b971d73	0.004611665
24	0xbe2dcecc	-0.16973418
25	0xbde8fae2	-0.11375977
26	0x3d5cf8d1	0.053948227
27	0x3e6c370e	0.23067877
28	0x3e655ce7	0.2239872
29	0x3e675601	0.22591402
30	0xbe0ecb8e	-0.13944837
31	0xbdd2a4ce	-0.1028534
32	0x3c8b8157	0.017029447
33	0xbd8ab1cb	-0.067721926
34	0x3db849ac	0.08998427
35	0x3dc80411	0.097664006
36	0xbdb6bb70	-0.089224696
37	0x3d6fa0d0	0.058502972
38	0x3e62f934	0.22165376
39	0x3c950169	0.018189149
40	0xbe0e8b2d	-0.13920279
41	0x3df33358	0.118750274
42	0xbdda2698	-0.106518924
43	0x3e71a3f8	0.23597705
44	0x3dfe3796	0.12412946
45	0x3e382b56	0.17985281
46	0x3d5df432	0.05418796
47	0x3d4cfac4	0.050043836
48	0x3c9bac0c	0.019002937
49	0xbdf9927a	-0.12186141
50	0x3dc589ab	0.09645399
51	0x3d13bf91	0.036071364
52	0x3d0e23e8	0.03470221
53	0xbcfe0b38	-0.031011209
54	0x3ddb8dfe	0.10720442
55	0x3d55ed46	0.052228235
56	0xbd92cad9	-0.07167596
57	0xbe087a88	-0.13327992
58	0x3db52f05	0.08846859
59	0x3e2e6960	0.17032385
60	0xbd698f5b	-0.05702148
61	0x3de569cb	0.11201819
62	0xbe39054f	-0.18068431
63	0xbc7b969f	-0.015355735
64	0xbce0c77f	-0.027438877
65	0x3d9d27a1	0.07673574
66	0x3e6d8381	0.23194696
67	0x3cfa8461	0.030580701
68	0x3e636fd0	0.22210622
69	0xbe144297	-0.14478527
70	0x3e19f763	0.15035777
71	0xbcb6c61d	-0.022311265
72	0x3dc126a2	0.09431197
73	0xbd2e0b0e	-0.04249101
74	0x3db0af61	0.08627201
75	0x3e18e79c	0.14932102
76	0x3d63c9d1	0.05561239
77	0x3d164311	0.036685053
78	0x3cf572ff	0.029962061
79	0x3e2f79f9	0.17136373
80	0xbd4bcbd6	-0.04975494
81	0xbd82d643	-0.063885234
82	0x3d9ed06e	0.077545986
83	0x3d3a6753	0.045508694
84	0xbe1d4519	-0.1535839
85	0x3bcbb2f0	0.0062163994
86	0x3d1b7d65	0.037961382
87	0x3e4942d8	0.19654405
88	0x3db5f87f	0.088852875
89	0x3d2fdd81	0.042935852
90	0x3df5676f	0.11982619
91	0x3d011521	0.03151429
92	0x3d9a1348	0.07523209
93	0xbe43fcda	-0.19139424
94	0xbb10560c	-0.0022023944
95	0x3e5f0a28	0.21781218
96	0xbc2ba2da	-0.010475839
97	0x3e54a73c	0.2076692
98	0xbe682a5d	-0.2267241
99	0x3dd0aaed	0.101888515
100	0x3dd7c366	0.10535316
101	0x3e1ebed4	0.15502483
102	0xbd66b9a1	-0.056329373
103	0x3e83c784	0.25738156
104	0xbd945bcf	-0.072440736
105	0xbc71ddb9	-0.014762335
106	0xbdaca203	-0.08429339
107	0x3cc66866	0.024219703
108	0xbe211005	-0.15728767
109	0x3e47e9d9	0.195228
110	0x3d90d64a	0.070721224
111	0x3e36c2c3	0.17847733
112	0x3e06cd7a	0.1316432
113	0x3e21f03b	0.15814297
114	0x3e1d9af1	0.15391137
115	0x3d43da59	0.047815654
116	0xbde99e65	-0.114071645
117	0xbd92bf5c	-0.07165405
118	0xbd249180	-0.040177822
119	0xbd1153ab	-0.035480183
120	0x3e862a67	0.26204225
121	0x3dc9f1a0	0.098605394
122	0x3dde6379	0.10858817
123	0xbe0ed12e	-0.13946983
124	0xbdd2fd56	-0.10302226
125	0x3e598b50	0.2124455
126	0xbe0ed01d	-0.13946576
127	0xbdf87e87	-0.12133508
128	0xbe0d01a1	-0.13770153
129	0xbd0f8532	-0.035039134
130	0x3e19dad5	0.15024884
131	0xbdbbb1ac	-0.091647476
132	0xbd0c0a5f	-0.03418958
133	0x3d836103	0.06414988
134	0x3d0ff775	0.035148103
135	0xbc465e35	-0.012107422
136	0xbba81ce3	-0.0051303967
137	0x3e7e91fc	0.24860376
138	0xbdd1adc7	-0.102382235
139	0x3c8aadf6	0.016928654
140	0xbdc15b34	-0.09441224
141	0x3def64b7	0.11689132
142	0xbd38afca	-0.04508952
143	0x3cff7a68	0.031186298
144	0x3df5c847	0.120010905
145	0x3dca034b	0.09863909
146	0xbd24dc8c	-0.040249392
147	0x3d4ab024	0.049484387
148	0x3d3ca599	0.046056364
149	0x3e2620f5	0.1622351
150	0xbde63b77	-0.11241811
151	0x3e376e77	0.17913233
152	0x3e11b336	0.1422852
153	0x3b276acc	0.0025545834
154	0x3d6f661a	0.05844698
155	0xbda8b9c0	-0.08238554
156	0xbe30ffd0	-0.17285085
157	0x3e5a4662	0.21315911
158	0xbe425cae	-0.18980667
159	0xbe13fa9b	-0.14451067
160	0xbe1da19b	-0.15393679
161	0xbdc1f0ef	-0.094697826
162	0x3e0da2f2	0.1383169
163	0x3e2642bf	0.16236399
164	0x3df0c374	0.1175603
165	0xbd80bb06	-0.06285672
166	0xbcc96aef	-0.024587123
167	0x3e3ddf8f	0.18542312
168	0x3d1613f3	0.03664012
169	0xbd5e8ba3	-0.054332387
170	0x3e85214e	0.26001972
171	0x3c55e75d	0.01305565
172	0x3cc7f324	0.02440793
173	0xbcce18f7	-0.025158389
174	0xbd1e0cc3	-0.03858639
175	0x3e35fbe2	0.17771867
176	0xbc823e1d	-0.015898759
177	0xbce0c49b	-0.027437499
178	0x3d16301a	0.036666967
179	0xbe28f036	-0.16497883
180	0xbdc609e2	-0.09669854
181	0xbe06d286	-0.13166246
182	0xbd0a0d74	-0.033704236
183	0xbd601868	-0.054710776
184	0x3e4dcf33	0.20098571
185	0x3dc12810	0.094314694
186	0xbe31c274	-0.17359334
187	0x3d7b1118	0.0612956
188	0xbe283211	-0.16425349
189	0x3e04eb1a	0.12980309
190	0xbdaadbd4	-0.0834271
191	0xbd65f0cb	-0.05613784
192	0x3d90b6a5	0.07066087
193	0xbd034fbf	-0.032058474
194	0xbdc0c425	-0.094124116
195	0xbc8adfe1	-0.016952457
196	0xbdbb9899	-0.09159965
197	0x3d7eb803	0.062187206
198	0xbe415e01	-0.18883516
199	0x3dde57b4	0.10856572

layers.2.weight f4 [200]
0	0x3f8103de	1.0079305
1	0x3f7eb40a	0.9949347
2	0x3f723f64	0.94627976
3	0x3f848147	1.0351952
4	0x3f7673fa	0.96270716
5	0x3f7e152c	0.99251056
6	0x3f7ee1c0	0.9956322
7	0x3f838163	1.0273861
8	0x3f85a7e3	1.044186
9	0x3f75bc69	0.95990616
10	0x3f81557c	1.0104213
11	0x3f886136	1.0654666
12	0x3f80da05	1.0066534
13	0x3f829558	1.0201826
14	0x3f7dff30	0.9921751
15	0x3f775b1e	0.9662341
16	0x3f80c986	1.00615
17	0x3f80a064	1.0048947
18	0x3f785f93	0.97020835
19	0x3f820e9a	1.0160706
20	0x3f70aea2	0.9401647
21	0x3f787b5a	0.9706322
22	0x3f79efa7	0.97631305
23	0x3f83870a	1.0275586
24	0x3f83234e	1.0245149
25	0x3f7541e2	0.95803654
26	0x3f85a49a	1.0440857
27	0x3f82fd0a	1.0233471
28	0x3f744838	0.954227
29	0x3f81de51	1.014597
30	0x3f848244	1.0352254
31	0x3f7bd0b7	0.9836535
32	0x3f7acf38	0.9797244
33	0x3f76921b	0.9631669
34	0x3f7df790	0.99205875
35	0x3f7c0a90	0.9845362
36	0x3f813feb	1.0097631
37	0x3f7636aa	0.9617716
38	0x3f80a107	1.0049142
39	0x3f806d1d	1.0033299
40	0x3f720fd6	0.94555414
41	0x3f819b29	1.0125476
42	0x3f7f17b5	0.9964555
43	0x3f8095b3	1.0045685
44	0x3f85599c	1.0417972
45	0x3f77eb4b	0.96843404
46	0x3f82b01a	1.0209992
47	0x3f869968	1.0515566
48	0x3f7ad8aa	0.97986853
49	0x3f83f719	1.0309783
50	0x3f839790	1.0280628
51	0x3f762010	0.96142673
52	0x3f83114e	1.0239656
53	0x3f821414	1.0162377
54	0x3f754f1d	0.9582384
55	0x3f828474	1.0196671
56	0x3f772aa7	0.9654946
57	0x3f83d536	1.0299442
58	0x3f783834	0.9696076
59	0x3f6bf21a	0.9216629
60	0x3f77741a	0.9666153
61	0x3f7f98d9	0.998426
62	0x3f801538	1.0006475
63	0x3f7c94f7	0.986648
64	0x3f80ea3a	1.007148
65	0x3f7d8f42	0.9904672
66	0x3f7db129	0.9909845
67	0x3f80cf2e	1.0063226
68	0x3f819633	1.0123962
69	0x3f721bfd	0.94573957
70	0x3f7774a1	0.96662337
71	0x3f7d66b3	0.9898483
72	0x3f7c8d1e	0.9865283
73	0x3f85582b	1.0417532
74	0x3f750870	0.95716
75	0x3f796b43	0.97429293
76	0x3f7ef664	0.9959471
77	0x3f800250	1.0000706
78	0x3f7f5eb6	0.9975389
79	0x3f73f378	0.9529338
80	0x3f7854e0	0.9700451
81	0x3f81e123	1.0146831
82	0x3f72436b	0.9463412
83	0x3f798fab	0.97484845
84	0x3f768f13	0.96312064
85	0x3f7dcb5d	0.9913843
86	0x3f8916fe	1.0710142
87	0x3f70c775	0.9405435
88	0x3f7ef39c	0.9959047
89	0x3f826275	1.0186297
90	0x3f8549d8	1.041316
91	0x3f7be774	0.98400044
92	0x3f7c84ec	0.9864032
93	0x3f8ab2f3	1.0835861
94	0x3f7dfd3b	0.99214524
95	0x3f7d9b9a	0.99065554
96	0x3f7fc74f	0.99913496
97	0x3f833c4e	1.0252779
98	0x3f7bd403	0.9837038
99	0x3f805b89	1.0027934
100	0x3f811ccc	1.0086913
101	0x3f8337d7	1.0251416
102	0x3f70eb08	0.9410863
103	0x3f86f9df	1.0545005
104	0x3f765700	0.962265
105	0x3f7fc404	0.9990847
106	0x3f833b01	1.0252382
107	0x3f7fff5e	0.99999034
108	0x3f83b789	1.0290385
109	0x3f7d74c0	0.9900627
110	0x3f80f49c	1.0074649
111	0x3f8361e7	1.0264252
112	0x3f822ca5	1.0169874
113	0x3f833f5e	1.0253713
114	0x3f8421e0	1.0322838
115	0x3f7e02cf	0.99223036
116	0x3f7f4290	0.9971094
117	0x3f808ecf	1.0043582
118	0x3f82942a	1.0201466
119	0x3f757468	0.95880747
120	0x3f745690	0.95444584
121	0x3f7fac4a	0.9987227
122	0x3f70fcb2	0.9413558
123	0x3f74e9bf	0.9566917
124	0x3f7375aa	0.95101416
125	0x3f7dff81	0.99217993
126	0x3f7ae153	0.9800007
127	0x3f7bfd80	0.98433685
128	0x3f8156f4	1.0104661
129	0x3f78832f	0.9707517
130	0x3f8412d7	1.031825
131	0x3f7c98a6	0.98670423
132	0x3f77a7e0	0.9674053
133	0x3f80f8a7	1.0075883
134	0x3f7c35dc	0.9851968
135	0x3f811c42	1.0086749
136	0x3f8215e9	1.0162936
137	0x3f850978	1.0393515
138	0x3f7b6775	0.9820474
139	0x3f878958	1.0588789
140	0x3f866969	1.0500919
141	0x3f861d6a	1.0477726
142	0x3f832b9f	1.0247687
143	0x3f8125b8	1.0089636
144	0x3f8386c4	1.0275502
145	0x3f818bdf	1.012081
146	0x3f81c77e	1.0139005
147	0x3f7539a4	0.9579108
148	0x3f8631aa	1.0483906
149	0x3f8149ed	1.0100685
150	0x3f841d91	1.0321523
151	0x3f813dc6	1.0096977
152	0x3f78c6ab	0.97178143
153	0x3f7a65b0	0.9781141
154	0x3f7bb371	0.9832068
155	0x3f77e090	0.9682703
156	0x3f76e05f	0.96436113
157	0x3f8100fa	1.0078423
158	0x3f78a0ab	0.9712016
159	0x3f7c8b45	0.9865001
160	0x3f828447	1.0196618
161	0x3f7d6d88	0.98995256
162	0x3f82d2b4	1.0220551
163	0x3f807b1b	1.0037569
164	0x3f7bc512	0.9834758
165	0x3f77bfa6	0.9677681
166	0x3f81be7d	1.0136257
167	0x3f778b02	0.96696484
168	0x3f829258	1.020091
169	0x3f704d91	0.93868357
170	0x3f7885fb	0.9707944
171	0x3f6f8df7	0.93575996
172	0x3f7fc542	0.99910367
173	0x3f76e798	0.96447134
174	0x3f7e0cde	0.99238384
175	0x3f824f13	1.0180382
176	0x3f80fd24	1.0077252
177	0x3f7f3aac	0.996989
178	0x3f7c86b7	0.9864306
179	0x3f7f8b87	0.99822277
180	0x3f7b1134	0.98073125
181	0x3f7ee57a	0.99568903
182	0x3f831749	1.0241481
183	0x3f818ff1	1.0122052
184	0x3f82e49e	1.0226018
185	0x3f78f0cb	0.9724242
186	0x3f7c383b	0.985233
187	0x3f775f1d	0.96629506
188	0x3f75100a	0.957276
189	0x3f807cdd	1.0038105
190	0x3f79b6a5	0.9754432
191	0x3f819f2e	1.0126703
192	0x3f80ffa1	1.0078012
193	0x3f752649	0.95761544
194	0x3f83042c	1.0235648
195	0x3f736df2	0.9508964
196	0x3f7d7180	0.9900131
197	0x3f7c45d9	0.9854408
198	0x3f7b5f73	0.9819252
199	0x3f7adcd7	0.97993225

layers.2.bias f4 [200]
0	0x3c8d7e06	0.017272007
1	0x3dcc288d	0.09968672
2	0xbc38c088	-0.011276372
3	0x3cfcb5aa	0.030848343
4	0xbd387af8	-0.045039147
5	0x3cd1928a	0.02558257
6	0xbdbcca9d	-0.09218333
7	0x3cbcc0e4	0.023041196
8	0xbd9e5815	-0.07731644
9	0x3c599945	0.013281171
10	0xbd1e8f58	-0.038710922
11	0xbd3ffca7	-0.046871807
12	0x3d0483ef	0.032352384
13	0xbdf14b0b	-0.117818914
14	0xbdd5e3f1	-0.10443867
15	0xbd717775	-0.058951814
16	0xbd804ea6	-0.06265001
17	0x3db960cd	0.090516664
18	0xbca683f7	-0.020326598
19	0x3dc44163	0.09582784
20	0x3d9b05ef	0.07569491
21	0x3da8fc0e	0.082512006
22	0xbd3e4539	-0.046452735
23	0xbc7fe377	-0.015618197
24	0xbce1cf47	-0.027564658
25	0xbda6648b	-0.08124646
26	0xbcea60ca	-0.028610606
27	0x38540ed4	5.055855e-05
28	0x3d349064	0.044083014
29	0x3d359ec6	0.04434087
30	0xbd024fde	-0.03181445
31	0x3c24714f	0.0100367805
32	0x3d0d703d	0.034530867
33	0xbc5dcd7b	-0.01353776
34	0x3bec4cc1	0.007211298
35	0xbdd21445	-0.10257772
36	0xbd923a6f	-0.071400516
37	0x3d815d83	0.06316664
38	0xbc87feea	-0.016601045
39	0xbbb1a37a	-0.0054210993
40	0xbe027882	-0.12741283
41	0x3dba8028	0.09106475
42	0xbdb81898	-0.08989066
43	0x3d91a092	0.071107045
44	0xbcbe80dc	-0.023254804
45	0xbd4ed41d	-0.050495256
46	0x3c8b5918	0.017010257
47	0x3d68cb1c	0.056834325
48	0xbd7acf9b	-0.061233144
49	0xbca67b64	-0.02032251
50	0x3d95e32d	0.07318721
51	0xbdd0657c	-0.101756066
52	0xbd86037e	-0.06543635
53	0xbd1a7111	-0.037705485
54	0xbdb81046	-0.08987479
55	0xbd99df50	-0.075132966
56	0xbdb17c75	-0.086663164
57	0xbdd47971	-0.103747256
58	0xbc529d19	-0.012854838
59	0xbc3fd1ad	-0.011707705
60	0xbb7d3fa4	-0.003864267
61	0xbc980e99	-0.018561648
62	0xbdce59b8	-0.10075706
63	0x3dace068	0.084412396
64	0xbdd4e65b	-0.10395499
65	0x3d4ae1ad	0.049531627
66	0x3d30da85	0.043177146
67	0x3db3f3a4	0.08786705
68	0x3d19b06c	0.037521765
69	0xbd188788	-0.037238628
70	0x3d9309f9	0.071796365
71	0xbca78c8a	-0.020452756
72	0xbd644aef	-0.055735525
73	0x3dccbaa5	0.09996537
74	0xbd8d5e77	-0.06902783
75	0x3df4b0e9	0.119478054
76	0xbdbc3344	-0.09189466
77	0xbcf1cb73	-0.029515957
78	0xbd9a8a79	-0.07545943
79	0x3d24cb8c	0.04023318
80	0xbd5a3a1f	-0.053278085
81	0x3d01b3e2	0.03166569
82	0xbce6b19f	-0.028160868
83	0xbd439007	-0.047744777
84	0xbe113d6f	-0.14183591
85	0xbd0e0dd9	-0.034681175
86	0x3c47e4c7	0.012200541
87	0xbd5036f4	-0.050833657
88	0xbce74408	-0.028230682
89	0x3dc9e4b1	0.098580725
90	0x3cc79c62	0.024366561
91	0x3c44f63c	0.0120215975
92	0x3d4cc91a	0.049996473
93	0xbdc90da2	-0.098170534
94	0x3bba0739	0.0056771305
95	0x3c5e4ba4	0.013567839
96	0xbdb33f1f	-0.08752274
97	0x3d108418	0.035282224
98	0xbda6c596	-0.08143155
99	0xbd06ddd0	-0.03292638
100	0x3da41a0a	0.08012779
101	0xbb8e3c5e	-0.0043406924
102	0x3cda709e	0.026665028
103	0x3d740201	0.059572224
104	0xbdc365b1	-0.095408805
105	0xbdbe5935	-0.09294359
106	0xbc9e7ac1	-0.019345643
107	0x3db33519	0.08750362
108	0xbd482912	-0.048867293
109	0x3d3b573f	0.0457375
110	0x3cf3be00	0.029753685
111	0xbd992637	-0.07477992
112	0x3d2893f0	0.04115671
113	0x3dbc7fdc	0.09204075
114	0xbd21b22f	-0.03947657
115	0x3d5d8921	0.054085854
116	0xbcf37ae5	-0.029721687
117	0xbd01799e	-0.031610124
118	0x3d31ad3f	0.04337811
119	0xbd83704c	-0.06417903
120	0x3c8990ac	0.016792618
121	0xbd18363a	-0.03716109
122	0xbe0572c4	-0.13032061
123	0x3c1d604e	0.00960548
124	0xbcc32b7c	-0.023824446
125	0x3c27cd57	0.010241828
126	0xbd174b8e	-0.03693729
127	0xbd8a6d42	-0.067591205
128	0x3d7acd94	0.06123121
129	0xbc807e22	-0.015685145
130	0xbc54a76e	-0.0129793715
131	0xbd8b2a53	-0.06795182
132	0xbdbcb505	-0.09214214
133	0xbda54849	-0.08070428
134	0xbd14fa32	-0.036371417
135	0x3d86e51f	0.0658667
136	0xbd46ed16	-0.048565947
137	0x3ce61f86	0.028091203
138	0xbe042a35	-0.12906726
139	0xbd74ae25	-0.05973639
140	0xbd655916	-0.055993162
141	0x3cfe0d93	0.031012332
142	0x3d56961d	0.052389253
143	0xbd67c569	-0.05658475
144	0xbbbab2de	-0.005697592
145	0xbc8cb852	-0.017177735
146	0x3d02939d	0.031879056
147	0xbd2b4219	-0.041811083
148	0x3b4fbe62	0.003169917
149	0x3c5a2566	0.013314581
150	0xbd887165	-0.06662253
151	0x3d315a67	0.043299105
152	0xbd18590f	-0.037194308
153	0xbd11c5cb	-0.03558902
154	0xbca6d969	-0.020367341
155	0x3c972777	0.018451435
156	0xbd3ed4b7	-0.04658958
157	0x3cc46cd5	0.023977676
158	0x3d158db5	0.036512095
159	0xbd8cb663	-0.06870725
160	0xbc211f74	-0.009834159
161	0x3da37a3f	0.07982301
162	0xbd5b3e9c	-0.053526506
163	0x3da7e67b	0.081982575
164	0xbd585eaf	-0.052824672
165	0xbd853361	-0.065039404
166	0x3ccbfc6b	0.024900636
167	0x3d3087d7	0.043098297
168	0x3d16b20d	0.036790896
169	0xbdccc712	-0.09998907
170	0x3df571de	0.11984609
171	0x3d4e9833	0.050438117
172	0xbd4fe278	-0.050753087
173	0xbd090e41	-0.03346086
174	0x3dabee91	0.08395112
175	0xbb42fc1a	-0.0029752315
176	0xbc9b2b96	-0.018941682
177	0xbd144b81	-0.03620482
178	0xbcb09455	-0.021555105
179	0x3d186e1d	0.037214387
180	0xbd588cc2	-0.052868612
181	0xbd1713cb	-0.03688411
182	0x3d8030b7	0.062592916
183	0xbdb10de9	-0.08645231
184	0x3ddab599	0.10679168
185	0x3c5429a8	0.012949385
186	0xbdc30a70	-0.09523475
187	0xbdab63b6	-0.08368628
188	0xbcf3ccf0	-0.029760808
189	0xbd0bc417	-0.034122553
190	0x3d5ac370	0.05340904
191	0xbdbe135a	-0.09281035
192	0xbda866ed	-0.082227565
193	0x3d09c054	0.033630684
194	0xbdc6b4d3	-0.09702458
195	0xbc9ff2c9	-0.019524949
196	0xbc648283	-0.013947132
197	0xbdeb9704	-0.11503413
198	0xbd867010	-0.06564343
199	0xbd8d44f3	-0.06897917

layers.2.running_mean f4 [200]
0	0x3e2464db	0.16054098
1	0x3ea71716	0.326348
2	0x3e524642	0.20534614
3	0x3e6e834d	0.23292275
4	0x3e3e6032	0.18591383
5	0x3e6ca650	0.23110318
6	0x3e1fa569	0.15590443
7	0x3ed4f362	0.41591936
8	0x3e7353db	0.23762457
9	0x3e9516f8	0.29119086
10	0x3e9fe8fd	0.31232443
11	0x3e6de3a4	0.2323137
12	0x3ee06c5a	0.43832666
13	0x3e3be4d8	0.18349016
14	0x3eaac020	0.33349705
15	0x3e7253ee	0.23664829
16	0x3e35208d	0.17688198
17	0x3ed1fa71	0.41011384
18	0x3f038fb8	0.5139117
19	0x3efa7835	0.48919836
20	0x3eaa8c74	0.33310282
21	0x3ef90d54	0.4864298
22	0x3eb7956c	0.35856187
23	0x3ea66c4b	0.32504496
24	0x3e046511	0.12929179
25	0x3dd9796b	0.10618862
26	0x3e3056a1	0.17220546
27	0x3e829745	0.25506034
28	0x3ede8dbd	0.43467513
29	0x3ed94efd	0.42443076
30	0x3dcc2d36	0.09969561
31	0x3e280ab3	0.16410331
32	0x3e7f3631	0.24923016
33	0x3e3aca08	0.18241131
34	0x3e811a33	0.252153
35	0x3e3913b1	0.18073918
36	0x3e58c488	0.2116872
37	0x3e729e9e	0.2369332
38	0x3ee01eac	0.437734
39	0x3e4b45cd	0.19850846
40	0x3e2de282	0.16980937
41	0x3eb29324	0.34877884
42	0x3e45ceb9	0.1931714
43	0x3ef9c91e	0.48786253
44	0x3ea9331e	0.33046812
45	0x3e8b1c68	0.2717011
46	0x3e997345	0.29970756
47	0x3ec21dde	0.37913412
48	0x3eacc9fc	0.33747852
49	0x3e5645c7	0.20925055
50	0x3ed99d1a	0.4250267
51	0x3e81e03f	0.253664
52	0x3e29d556	0.16585287
53	0x3e2b3845	0.16720684
54	0x3e710ce4	0.23540074
55	0x3e53a9be	0.2067022
56	0x3e96b890	0.29437685
57	0x3e20f33d	0.15717788
58	0x3e976c81	0.2957497
59	0x3f02f8e2	0.51161015
60	0x3e90133b	0.28139672
61	0x3e993c10	0.29928637
62	0x3d2c64e4	0.042088404
63	0x3e61b723	0.22042517
64	0x3e33ad3b	0.17546551
65	0x3ecd5f7d	0.40111914
66	0x3e71aa05	0.23600014
67	0x3ec840e7	0.39112017
68	0x3edbf07d	0.42956915
69	0x3e2f5469	0.17122044
70	0x3f0e817d	0.55666333
71	0x3e86ecde	0.2635259
72	0x3eaf0436	0.341829
73	0x3e335efb	0.17516701
74	0x3ebb61c1	0.36598018
75	0x3ed7cd52	0.42148834
76	0x3e519eb2	0.20470694
77	0x3e8bcf27	0.27306482
78	0x3e9a34d2	0.30118424
79	0x3f00a1b8	0.50246763
80	0x3e07ab7f	0.13249014
81	0x3e86e588	0.26346993
82	0x3ea65b50	0.3249154
83	0x3e8c135f	0.2735853
84	0x3dab92e2	0.08377625
85	0x3eb97026	0.36218375
86	0x3eaa381b	0.3324593
87	0x3ea3ba70	0.31978178
88	0x3ea05402	0.31314093
89	0x3eca1137	0.3946626
90	0x3e9a9e4d	0.301989
91	0x3e6a973e	0.22909257
92	0x3ec5cd8c	0.38633382
93	0x3dc45932	0.09587325
94	0x3e7c5a90	0.24643922
95	0x3f035061	0.51294523
96	0x3e69f702	0.22848132
97	0x3eb01a66	0.3439514
98	0x3dada0e4	0.08477953
99	0x3e8a8a7e	0.27058786
100	0x3ea2ad74	0.3177296
101	0x3ea407f9	0.32037333
102	0x3e805b9f	0.250699
103	0x3eb007ae	0.3438086
104	0x3e1878af	0.14889787
105	0x3e5a109e	0.21295401
106	0x3e3d69e8	0.18497431
107	0x3e6e3ddd	0.23265786
108	0x3deb6336	0.11493532
109	0x3ee2696f	0.44221064
110	0x3e33c888	0.17556965
111	0x3e606cde	0.2191653
112	0x3ede1373	0.43374214
113	0x3eefef0b	0.46862063
114	0x3e7e991d	0.24863096
115	0x3edf3270	0.43593168
116	0x3e36918d	0.1782896
117	0x3e59a726	0.21255168
118	0x3e8a0d58	0.26963305
119	0x3e86b57b	0.26310334
120	0x3f0d409f	0.5517673
121	0x3e8eea90	0.27913332
122	0x3ebf853f	0.37406346
123	0x3e7d83ea	0.24757352
124	0x3eb02519	0.34403303
125	0x3e904e1a	0.28184587
126	0x3de545e7	0.111949734
127	0x3d974310	0.07385838
128	0x3e23980d	0.15975972
129	0x3e528e59	0.20562114
130	0x3e8aabe2	0.2708426
131	0x3e0b5aaa	0.13608804
132	0x3e832183	0.25611505
133	0x3e873401	0.26406863
134	0x3eafa088	0.34302163
135	0x3e3d7c36	0.18504414
136	0x3e41416e	0.18872616
137	0x3ee62e52	0.44957215
138	0x3dfd6556	0.12372844
139	0x3e5c5d47	0.21519957
140	0x3e996a3a	0.29963857
141	0x3ea4ef6f	0.32213923
142	0x3e2ef902	0.17087176
143	0x3e6d8c46	0.23198041
144	0x3e9b1d2e	0.302957
145	0x3e996dfc	0.29966724
146	0x3e7c7a9e	0.2465615
147	0x3e88ba69	0.2670472
148	0x3e440331	0.19141842
149	0x3f0bbfaa	0.5458933
150	0x3e030006	0.12792978
151	0x3e866b37	0.26253673
152	0x3e9552a7	0.2916462
153	0x3e7399a7	0.23789082
154	0x3e905795	0.2819182
155	0x3ee00b34	0.43758547
156	0x3de2e524	0.11078861
157	0x3e87873a	0.26470357
158	0x3e109549	0.14119448
159	0x3e6a953f	0.22908495
160	0x3ded4731	0.11585844
161	0x3e6f9fc3	0.23400788
162	0x3eaf0d20	0.341897
163	0x3ec00cb9	0.37509707
164	0x3ecef198	0.40418696
165	0x3eef2db4	0.46714556
166	0x3e35216d	0.17688532
167	0x3ec087ca	0.376036
168	0x3ea6bb1a	0.32564622
169	0x3e584b45	0.21122463
170	0x3ebf46f8	0.37358832
171	0x3e146337	0.14490972
172	0x3e8d7b37	0.27633068
173	0x3e862077	0.26196644
174	0x3e715115	0.23566087
175	0x3e8ca88a	0.27472335
176	0x3ec71aea	0.3888772
177	0x3e86451f	0.2622461
178	0x3eb80832	0.35943753
179	0x3e13eefb	0.14446633
180	0x3e1a9d6e	0.15099117
181	0x3dec50f9	0.11538882
182	0x3ea40ea1	0.3204241
183	0x3e3a1553	0.18172197
184	0x3ed08b5d	0.40731326
185	0x3eb7129e	0.3575639
186	0x3dbb3ecb	0.09142836
187	0x3e410801	0.1885071
188	0x3de20c25	0.11037473
189	0x3e84eca6	0.25961798
190	0x3e6b48b1	0.22976948
191	0x3e8fd048	0.28088593
192	0x3e6fc127	0.23413526
193	0x3e8d0c00	0.27548218
194	0x3e268b94	0.16264182
195	0x3e911921	0.28339484
196	0x3e8479f5	0.25874296
197	0x3e31a72d	0.17348929
198	0x3e0cf635	0.13765796
199	0x3e8a7fe2	0.27050692

layers.2.running_var f4 [200]
0	0x3d94c3d9	0.072639175
1	0x3dfd9287	0.123814635
2	0x3dcc62ef	0.099798076
3	0x3dc84d58	0.09780377
4	0x3deb23f4	0.11481467
5	0x3de51ce4	0.11187151
6	0x3e126783	0.14297299
7	0x3e19bf6b	0.15014426
8	0x3e53dbff	0.2068939
9	0x3e0d8617	0.13820682
10	0x3e3ddb41	0.1854067
11	0x3e2e9100	0.170475
12	0x3e04625b	0.12928145
13	0x3e0b5b51	0.13609053
14	0x3e56bef9	0.20971288
15	0x3e0c001a	0.13671914
16	0x3e0335f3	0.12813549
17	0x3df93c6c	0.12169728
18	0x3eb83cca	0.35983878
19	0x3e2aa1c9	0.16663279
20	0x3db90864	0.090348035
21	0x3e6b4141	0.22974111
22	0x3e694dcf	0.22783588
23	0x3e951592	0.2911802
24	0x3e4d5628	0.20052397
25	0x3dbf1d4f	0.09331762
26	0x3db51522	0.088419214
27	0x3e0813d7	0.13288818
28	0x3e27be4d	0.16381188
29	0x3e69113d	0.22760482
30	0x3d981e0e	0.074276075
31	0x3da434b6	0.08017866
32	0x3def4fc6	0.116851375
33	0x3de804d1	0.11329044
34	0x3e2cecdc	0.1688723
35	0x3dcdeeb4	0.10055295
36	0x3e725d72	0.23668459
37	0x3d93c9c5	0.07216219
38	0x3e2d35c7	0.16915046
39	0x3dda476d	0.10658155
40	0x3e085822	0.1331487
41	0x3e1a6ac3	0.15079789
42	0x3e50f98b	0.20407693
43	0x3df249c4	0.11830476
44	0x3e4dff6a	0.20116964
45	0x3e6196a9	0.22030129
46	0x3dd75199	0.105136104
47	0x3e0b685e	0.13614032
48	0x3e55b871	0.2087114
49	0x3e8ea961	0.278636
50	0x3e20e37c	0.15711778
51	0x3e40e6bc	0.18838018
52	0x3e443f64	0.19164807
53	0x3e18ac10	0.14909387
54	0x3e1b21ad	0.15149565
55	0x3e0e668d	0.13906308
56	0x3e8335f3	0.25627097
57	0x3dd36446	0.1032186
58	0x3e970ac8	0.29500413
59	0x3e4e6020	0.20153856
60	0x3e7d29f9	0.24723043
61	0x3e78d254	0.24298984
62	0x3c895e27	0.016768528
63	0x3dbc9f6f	0.09210097
64	0x3dc9c20c	0.09851465
65	0x3e2aaf4c	0.16668433
66	0x3dd0f309	0.10202605
67	0x3e826a99	0.25471953
68	0x3dbc3ce1	0.09191299
69	0x3dec0450	0.1152426
70	0x3e9885be	0.29789537
71	0x3e13800d	0.14404316
72	0x3e8bb71a	0.27288133
73	0x3d9dba3d	0.07701538
74	0x3e5ed382	0.21760371
75	0x3e14659d	0.14491887
76	0x3e644b39	0.2229432
77	0x3e35a464	0.17738491
78	0x3e485fb3	0.19567756
79	0x3e3f029a	0.18653336
80	0x3dc2b6a4	0.09507492
81	0x3dd1592d	0.10222087
82	0x3e74b39c	0.2389664
83	0x3e3e4cc3	0.1858397
84	0x3d41f736	0.0473549
85	0x3e6c12d5	0.23054059
86	0x3dea6cca	0.11446531
87	0x3e30be9b	0.1726021
88	0x3e4c6f5b	0.19964354
89	0x3e2616fd	0.16219707
90	0x3e5e4c86	0.21708879
91	0x3e26b224	0.16278893
92	0x3dfb9a10	0.122852445
93	0x3de0099d	0.109393336
94	0x3ddf6f87	0.10909944
95	0x3e2691f8	0.1626662
96	0x3e7359ac	0.23764676
97	0x3e1c3d47	0.1525775
98	0x3dac9c10	0.08428204
99	0x3eb88320	0.3603754
100	0x3dfa279a	0.12214585
101	0x3e490607	0.19631205
102	0x3e07c2d2	0.13257912
103	0x3e3be5fd	0.18349452
104	0x3db37ed9	0.08764429
105	0x3e2e1568	0.17000353
106	0x3e914866	0.28375548
107	0x3dccb2c2	0.09995033
108	0x3debc791	0.11512674
109	0x3e0a2263	0.1348968
110	0x3da81515	0.08207146
111	0x3e332a8b	0.17496698
112	0x3e5f168e	0.21785948
113	0x3e48e418	0.19618261
114	0x3e33d18f	0.17560409
115	0x3e513947	0.20432006
116	0x3dc3b3b1	0.09555758
117	0x3e2410b7	0.16022001
118	0x3e1eac1f	0.15495346
119	0x3e37c509	0.17946257
120	0x3e64e381	0.22352411
121	0x3e7a673a	0.2445344
122	0x3e9f79b1	0.3114753
123	0x3e0043ae	0.12525818
124	0x3e3ebd30	0.18626857
125	0x3deb3478	0.11484617
126	0x3d9e3bc0	0.0772624
127	0x3d7ab5cd	0.061208535
128	0x3d94bcb1	0.072625525
129	0x3e1274fa	0.14302436
130	0x3eaf5997	0.3424804
131	0x3e1a2114	0.15051681
132	0x3e8257d2	0.25457627
133	0x3e49b7a4	0.1969896
134	0x3e5a7b74	0.21336156
135	0x3dc32fe3	0.09530618
136	0x3e47209f	0.19446038
137	0x3e2df81f	0.16989182
138	0x3df8979e	0.12138294
139	0x3e305e0b	0.17223375
140	0x3e2c964e	0.16854212
141	0x3e1524a6	0.14564762
142	0x3da3be99	0.07995338
143	0x3e3684fe	0.1782417
144	0x3dd7c13f	0.10534906
145	0x3e89fd93	0.26951274
146	0x3dfedce4	0.12444475
147	0x3e1aae9a	0.15105668
148	0x3e1ae490	0.15126252
149	0x3e554096	0.20825419
150	0x3e0970e5	0.13421972
151	0x3df69e10	0.12041867
152	0x3e798e16	0.24370608
153	0x3de4d5fa	0.11173625
154	0x3e3cf0da	0.18451253
155	0x3e7173ee	0.2357938
156	0x3d806c54	0.06270662
157	0x3e80a698	0.251271
158	0x3dad1d25	0.084528245
159	0x3e240590	0.16017747
160	0x3d862c1f	0.06551384
161	0x3e0f4bc9	0.13993753
162	0x3e3cf27a	0.18451872
163	0x3e5dcae5	0.2165943
164	0x3e805b26	0.2506954
165	0x3e8260d5	0.25464502
166	0x3db31c0d	0.08745585
167	0x3e2376af	0.15963243
168	0x3d98b8f4	0.07457152
169	0x3dbebf3e	0.0931382
170	0x3df0f8e4	0.11766222
171	0x3d8de7d3	0.069289826
172	0x3e55793e	0.20847031
173	0x3e1cfd8c	0.15331095
174	0x3e05f89a	0.13083115
175	0x3e8c7f73	0.27440986
176	0x3e10afde	0.14129588
177	0x3e6d7772	0.23190096
178	0x3e52f92b	0.20602863
179	0x3d8ab862	0.067734495
180	0x3e05fe8a	0.1308538
181	0x3d8e9cb6	0.06963484
182	0x3e1ce013	0.15319853
183	0x3e01f435	0.12690814
184	0x3df1e874	0.11811915
185	0x3e29fdb6	0.1660069
186	0x3d8bf03c	0.068329304
187	0x3e446c0a	0.19181839
188	0x3d8cd0ab	0.06875738
189	0x3e5ef39f	0.21772622
190	0x3dbc7a2c	0.0920299
191	0x3e382a70	0.17984939
192	0x3e15b130	0.14618373
193	0x3e10e4da	0.141498
194	0x3dd8e490	0.1059047
195	0x3e40d80f	0.1883242
196	0x3e02b869	0.1276566
197	0x3e1f0b5f	0.15531681
198	0x3d9c0820	0.07618737
199	0x3e408062	0.18798974

layers.4.weight f4 [100, 200]
0	0xbd55a9a5	-0.05216374
1	0xbd641eb9	-0.055693362
2	0xbdc46166	-0.0958889
3	0xbd21b9e6	-0.039483927
4	0xbdaa9a16	-0.08330171
5	0x3c2af980	0.010435462
6	0xbce7ee41	-0.02831185
7	0xbcd45785	-0.025920639
8	0xbc02f206	-0.007992273
9	0xbd641ddc	-0.05569254
10	0xbd186854	-0.03720887
11	0x3d9856ca	0.07438429
12	0xbd410d48	-0.047131807
13	0x3d9dd9b9	0.07707543
14	0x3d131a1f	0.035913583
15	0x3d174d98	0.036939234
16	0x3b598e12	0.0033196253
17	0xbdc5d06a	-0.096588925
18	0x3d7b908f	0.06141716
19	0x3d25066e	0.040289335
20	0xbbe11dd7	-0.0068700123
21	0x3c76e095	0.015068193
22	0xbcc74b89	-0.02432801
23	0x3bd3c629	0.0064628315
24	0x3c9dc579	0.019259201
25	0x3d29cee3	0.04145707
26	0x3d9962ca	0.07489546
27	0x3db13fc2	0.08654739
28	0xbd04962b	-0.032369774
29	0xbd3d9eb8	-0.046293944
30	0x3c84c70a	0.01620819
31	0x3cc7fbb3	0.024412012
32	0xbd8f8267	-0.07007294
33	0xbce5fc9c	-0.028074555
34	0x3d6a8840	0.057258844
35	0x3bbdeb6e	0.0057958877
36	0xbc312633	-0.01081233
37	0xbdd0ab40	-0.10188913
38	0xbd7ee0ab	-0.06222598
39	0x3dc2eda9	0.09517986
40	0x3b9aeb23	0.0047277375
41	0xbc8d51d4	-0.017250933
42	0x3d77235e	0.060336463
43	0x3bc11462	0.0058923224
44	0x3da9d845	0.08293203
45	0xbc6f2170	-0.014595374
46	0xbd85a860	-0.065262556
47	0xbc1d4de9	-0.009601095
48	0x3c4f3f10	0.012649313
49	0x3db94426	0.090462014
50	0xbd8854e3	-0.06656816
51	0x3d70bac3	0.05877186
52	0xbbce98ad	-0.0063048215
53	0x3db893b6	0.090125486
54	0x3d65b6b4	0.056082442
55	0x3a832a75	0.001000716
56	0x3d659ae0	0.056055903
57	0xbc8ac4f9	-0.016939627
58	0x3d8d61ad	0.06903396
59	0xbd56b224	-0.052415982
60	0x3df19d64	0.11797598
61	0x3ddbd417	0.10733812
62	0x3b6b6645	0.0035919112
63	0x3d85e765	0.06538276
64	0xbd3bfc49	-0.045894895
65	0xbd408a8f	-0.04700714
66	0x3c7e8954	0.015535671
67	0xbd57910a	-0.052628554
68	0x3cd2bffe	0.025726315
69	0xbc0a899b	-0.008455659
70	0x3c44c96d	0.012010914
71	0x3c6b74b8	0.01437109
72	0x3dad9480	0.0847559
73	0xbd5aa181	-0.05337668
74	0x3d26ed06	0.040753387
75	0x3d85d69b	0.06535073
76	0xbb232b83	-0.0024897761
77	0x3d1d4651	0.038397137
78	0x3d62394f	0.055230435
79	0xbd7f0141	-0.062257055
80	0xbc7de1b1	-0.015495704
81	0x3da2011d	0.079103686
82	0x3d11f295	0.035631735
83	0x3c8fb1b5	0.017540792
84	0x3d75738e	0.059924655
85	0x3dce28b6	0.10066359
86	0xbde9b3a6	-0.11411218
87	0xbd3a6cfe	-0.0455141
88	0x3d7398d5	0.059471924
89	0xbd6c8c90	-0.05775124
90	0x3d8b3144	0.06796506
91	0x3b1b5c19	0.0023706018
92	0xbd1973b3	-0.037463855
93	0x3d806a25	0.062702455
94	0x3d4019ee	0.04689973
95	0x3d4cfc1e	0.050045125
96	0x3d8434b6	0.06455366
97	0xbcac7e27	-0.021056248
98	0x3c95b931	0.018276783
99	0x3d9ce587	0.07660966
100	0x3d12f2a7	0.035875943
101	0xbd99ce15	-0.0751001
102	0xbd8f1bf3	-0.06987753
103	0x3d5d09f9	0.05396459
104	0x3ca02623	0.019549435
105	0xbc005fed	-0.0078353705
106	0xbc07881d	-0.008272198
107	0xbdb7c851	-0.08973754
108	0x3d23775e	0.03990876
109	0xbdaef717	-0.085432224
110	0xbd1f4349	-0.038882528
111	0x3d7ab0d3	0.06120379
112	0xbd66459e	-0.056218736
113	0xbca4c12a	-0.020111639
114	0xbba11995	-0.0049163797
115	0xbcc55184	-0.024086721
116	0x3d9e9b83	0.07744505
117	0x3db16541	0.08661891
118	0x3c235f2f	0.009971424
119	0xbca4df00	-0.020125866
120	0x3c70adc9	0.014689871
121	0xbc3abeac	-0.011397999
122	0x3da50acd	0.08058701
123	0xbb862495	-0.0040937164
124	0xbd3c3c52	-0.045955963
125	0x3d20812a	0.03918568
126	0xbc99ea9c	-0.018788628
127	0x3c79ceec	0.015247088
128	0xbcfed698	-0.031108186
129	0x3c31a2dd	0.010842052
130	0x3ddcf903	0.10789683
131	0x3d860fcf	0.06545984
132	0x3d7e997e	0.0621581
133	0x3c9c7cd4	0.019102491
134	0x3d888c0e	0.06667338
135	0xbd0d7848	-0.034538537
136	0x3db93da6	0.09044962
137	0x3d1c0e52	0.038099594
138	0xbd4a9e4f	-0.04946738
139	0x3d87b426	0.066261575
140	0x3ce4308c	0.02785518
141	0xbd778602	-0.060430534
142	0x3bd5c6fd	0.0065239654
143	0x3ddb7961	0.107165106
144	0xbd80d3e5	-0.06290416
145	0xbc39ca81	-0.011339785
146	0x3d70815f	0.058717128
147	0x3d40e6ba	0.047095038
148	0x3d043c23	0.032283913
149	0xbd82447e	-0.0636072
150	0x3b8eda2c	0.004359504
151	0x3d4618c3	0.04836346
152	0x3d8d1bbd	0.06890056
153	0xbb68849d	-0.0035479434
154	0xbd673e55	-0.05645593
155	0xbcb72cd3	-0.022360241
156	0x3d8b8c4a	0.068138674
157	0x3d89bc47	0.06725364
158	0xbd12f672	-0.03587956
159	0xbca84c8f	-0.020544318
160	0xbd005972	-0.0313353
161	0xbb7faa97	-0.0039011592
162	0x3da319ef	0.07963931
163	0xbd66809a	-0.056274988
164	0x3dfd6650	0.1237303
165	0x3d7da5ce	0.0619257
166	0xbd2a8328	-0.041628987
167	0x3d289b0a	0.04116348
168	0x3d6e83d5	0.058231194
169	0x3c2591f3	0.010105598
170	0xbdec30ac	-0.11532721
171	0x3ce086a9	0.027407961
172	0xbcb06e8c	-0.021537088
173	0xbd0eb555	-0.0348409
174	0x3d6e4e1a	0.058179952
175	0x3b3f0990	0.0029149987
176	0xbda3b35a	-0.07993193
177	0x3d6a3524	0.057179585
178	0x3d1470ef	0.036240514
179	0xbd9e0660	-0.0771606
180	0x3d8139e2	0.063098684
181	0x3d0d32bb	0.03447221
182	0x3d29b41e	0.04143154
183	0x3aaa3f0c	0.001298876
184	0x3cd0f116	0.025505584
185	0xbd50c57f	-0.050969597
186	0x3db341ce	0.087527856
187	0xbbacd469	-0.0052743447
188	0x3b9e88b1	0.004838072
189	0x3d4db8d8	0.05022511
190	0x3db3321a	0.087497905
191	0xbce877c2	-0.028377417
192	0x3d01f063	0.03172339
193	0xbd8eaefc	-0.06966969
194	0x3d83a188	0.06427294
195	0x3ca50ea6	0.020148586
196	0x3c824734	0.015903093
197	0xbb441a45	-0.0029922884
198	0x3d16e564	0.036839858
199	0x3d852db7	0.0650286
200	0xbd3be65a	-0.045873977
201	0x3b99dbc2	0.0046953866
202	0x3d957495	0.07297627
203	0xbda1a81a	-0.07893391
204	0xbce0a0b5	-0.027420381
205	0x3d04302d	0.032272507
206	0xbbe02f8b	-0.006841605
207	0xbcdd07be	-0.02698123
208	0xbd879fa0	-0.06622243
209	0x3d258e62	0.04041899
210	0x3babe836	0.0052461876
211	0x3c8f3d24	0.017485209
212	0xbcbdf6a7	-0.023188902
213	0xbd460f58	-0.048354477
214	0xbd665076	-0.056229077
215	0xbd5a2748	-0.053260118
216	0xbd94eb45	-0.072714366
217	0xbd895408	-0.06705481
218	0x3cfa2c50	0.030538708
219	0x3ce12791	0.027484687
220	0x3bc6d744	0.006068142
221	0xbd929356	-0.07157008
222	0xbd99c2e4	-0.075078756
223	0xbd9c49d8	-0.07631272
224	0xbd861130	-0.06546247
225	0xbdd55cbd	-0.10418079
226	0xbc9bc33f	-0.019013999
227	0x3c504618	0.012712024
228	0x3c734b08	0.014849432
229	0xbd89a796	-0.067214176
230	0x3b7e7d5d	0.0038832047
231	0x3a6e9a48	0.0009101969
232	0xbd0f3127	-0.034958985
233	0xbd60fcdf	-0.054928657
234	0xbc25c487	-0.010117657
235	0x3d13c477	0.036076035
236	0x3d51d281	0.051226143
237	0x3db4a617	0.088207416
238	0x3dc8b8c6	0.09800868
239	0xbd8ff2d9	-0.070287414
240	0xbd282961	-0.041055087
241	0x3da3c561	0.079966314
242	0x3c0aa990	0.008463278
243	0x3cb4cf86	0.022071611
244	0xbd2bf98b	-0.04198603
245	0xbdf24d71	-0.11831177
246	0xbd10b11a	-0.035325147
247	0x3d229ee2	0.039702304
248	0x3b6812cd	0.0035411597
249	0xbdafbc90	-0.08580887
250	0xbd38a1f3	-0.04507632
251	0x3c9947bd	0.018710965
252	0xbc426aa1	-0.011866243
253	0xbd8607ec	-0.0654448
254	0x3d28331a	0.04106436
255	0xbd5666c7	-0.05234411
