02-ANN-Artificial-Neural-Networks/2022-02-05_iris_model.pt (torch, 2519 bytes, 6 tensors)

fc1.weight f4 [8, 4]
000000 87 d7 f7 3d 4d a5 e0 be 9c 9a ec be 5a c6 33 bd
       0.121016555 -0.43876114 -0.46211708 -0.043890335
000010 08 29 c6 be f0 7d a2 3d 60 a1 17 3e da 44 f4 be
       -0.3870318 0.07934177 0.14807653 -0.4770878
000020 49 b2 cd 3e 5b ee 88 3d 43 67 19 3f 7e 6e c9 bb
       0.40175083 0.06686088 0.5992319 -0.006147205
000030 10 a1 4c 3f ae 91 c5 3e bb ff 19 bf e7 95 b1 bf
       0.7993326 0.38587707 -0.6015584 -1.3873872
000040 44 cd b9 3e 37 6f 09 bf 65 03 65 3f c3 f2 7a 3f
       0.36289418 -0.53685325 0.89458305 0.98026675
000050 e3 45 09 3f 19 12 55 3f 94 30 5c bf 29 96 95 bf
       0.53622264 0.8323074 -0.86011624 -1.168645
000060 a8 98 28 3e 70 0d e4 bd ec ba d7 be 58 f0 b5 be
       0.16464484 -0.111353755 -0.42134798 -0.3553493
000070 9c 64 a3 be 90 69 13 3e 38 ff b2 be e4 82 69 3e
       -0.31912696 0.14395738 -0.3496034 0.22803837

fc1.bias f4 [8]
000000 2b 34 3e 3e 1c bc 4f be ed 9e 50 3f 38 ac b2 3f
       0.18574588 -0.20286602 0.814925 1.3958807
000010 41 0e 08 bf b6 02 a0 3f ea dc 9f be f0 90 c1 3e
       -0.5314675 1.2500827 -0.31223232 0.3780589

fc2.weight f4 [9, 8]
000000 3a a1 5e be 20 2c a8 3d 7a 25 d4 3d dd ee b4 be
       -0.2174119 0.08211541 0.103587106 -0.35338488
000010 b8 57 d6 be 8c c2 cc 3d 8a e5 b2 be 11 1c 87 be
       -0.418638 0.09998044 -0.3494075 -0.263886
000020 93 0c 31 3e c4 bf f2 bd 8a 6e 64 3f 42 88 0a be
       0.17289953 -0.11852983 0.8923117 -0.1352854
000030 b5 f2 1f 3f cf 69 41 bf 40 2e 8f 3d 70 31 a7 be
       0.62479717 -0.75552076 0.06991243 -0.32654905
000040 75 87 b5 be 8d 12 8b be 51 d8 f4 3d 1b b0 2b bf
       -0.35454908 -0.2716259 0.119553216 -0.6706559
000050 b6 d4 30 3f 64 ba 62 bf 27 0a 9c 3e 89 2c 57 be
       0.6907457 -0.8856566 0.30476496 -0.21013083
000060 5e ee 96 bd b8 92 78 bd 98 56 35 3e 80 1e 2b bd
       -0.07369684 -0.060686797 0.17708814 -0.041777134
000070 90 9e 07 be 2e 8f f2 bd 99 b0 99 be f4 f0 e6 bd
       -0.1324408 -0.118437156 -0.30017546 -0.11276427
000080 43 b0 01 3e a5 c6 43 be 34 ea 96 3d 23 03 4d bf
       0.12664895 -0.19118746 0.073688895 -0.8008291
000090 25 53 52 3f 98 48 bd be e8 49 50 be 00 9f 3a 3c
       0.8215812 -0.36969447 -0.20340693 0.011390448
0000a0 a0 47 a1 bc 50 61 80 3d 76 46 6b be 4c de 61 be
       -0.019687474 0.06268561 -0.22976097 -0.22057456
0000b0 28 b5 54 bd be 2b 8b be 40 47 21 3d 07 17 39 be
       -0.051930577 -0.2718181 0.03937459 -0.1807519
0000c0 b2 b1 83 be 50 ea 8e bc be 1a b8 3e 08 38 8f 3d
       -0.25721508 -0.017445713 0.35957903 0.06993109
0000d0 b8 53 54 3f 2f 52 18 bf 02 42 e2 bd 38 b8 7f bd
       0.82940245 -0.595004 -0.11047746 -0.062431544
0000e0 5e d6 04 be 7c 94 af be fb c7 34 3f 94 1f 13 3f
       -0.129724 -0.34292972 0.70617646 0.5747006
0000f0 eb af 6b be 8c 5f 79 3f 20 66 b4 be 81 fa 9f 3e
       -0.23016326 0.9741142 -0.35234165 0.31245807
000100 17 d3 ac be 37 2c 55 be 94 e4 fa 3d 35 5c 24 be
       -0.337548 -0.20817648 0.12250629 -0.16050799
000110 49 6d 35 be 86 58 9f be 6c 30 dd 3d 49 ee 91 3e
       -0.1771747 -0.31122226 0.10800251 0.2850211

fc2.bias f4 [9]
000000 dc 48 92 3c 59 9f 12 3f 9f 1d 82 bf b4 0e e3 be
       0.017857008 0.57274395 -1.016529 -0.44347155
000010 78 a9 40 bf 08 de 12 bd 45 06 9d bc 14 58 16 3f
       -0.7525859 -0.035856277 -0.019168029 0.58728147
000020 81 dd ec bc
       -0.028914215

out.weight f4 [3, 9]
000000 40 f3 0d be c3 aa 11 bf 68 c8 23 be c2 38 19 bd
       -0.13862324 -0.56901187 -0.15994418 -0.037407644
000010 4d e4 3d bf 42 1a 68 3e bc 0d 16 bf 18 a6 35 3f
       -0.74176484 0.22666267 -0.58614707 0.70956564
000020 dc 94 94 3e 56 da ca 3d 0d 87 18 3f 93 89 8b bf
       0.2901982 0.099049255 0.5958107 -1.0901359
000030 3d cd 09 be fc 44 36 bf b1 2f 8b 3e 97 c2 d8 3e
       -0.13457198 -0.7119901 0.27184823 0.4233596
000040 a7 2a e0 3d b9 1e 52 3e 59 3c 46 be 43 f9 78 3e
       0.10945635 0.20519532 -0.19358958 0.24313836
000050 92 42 43 3f 81 aa 18 bd 18 09 46 3f e6 d2 a4 be
       0.76273453 -0.03727198 0.77357626 -0.32192153
000060 80 8c 49 3f 0a 30 8b bf e0 55 b3 bd
       0.7873001 -1.0874035 -0.08756614

out.bias f4 [3]
000000 01 46 13 3f 6b 1b 51 be a1 d3 24 bf
       0.5752869 -0.20420615 -0.6438542
