02-ANN-Artificial-Neural-Networks/2l-TaxiFareRegrModel.pt (torch, 119194 bytes, 21 tensors)

embeds.0.weight f4 [24, 12]
00000000: b172 9d3e fae2 d1be 2872 23bf b0f2 cb3e
00000010: 6feb 663f 0415 50bf 8013 c93f a3fa 253e
00000020: 4be5 83bf bdac a83f fb94 053f 153d e73d
00000030: 7a68 e83d 5c13 a7bf 1072 1d3d 2819 3c3f
00000040: a24e 14be 2a8e a5bf c9c3 893f 3b1c d5be
00000050: e8d3 013e 03bb b63f 45e8 1abf 056d 123f
00000060: 296b 1b3e 0ae4 98bf 0057 50bf 4b46 b43e
00000070: 7224 2c3e c774 27bf 08e7 92bf bf3d 87bf
00000080: 4b48 54bf 85c0 1d3f 2acf 61bf 16c5 563f
00000090: 0842 83bf 9e16 a7be 42e6 88bf 3a12 953f
000000a0: 7974 9dbc ead0 6fbd 8cfd d63e b258 563f
000000b0: cb7d fe3e 4e61 b83e 9443 813e 2ca8 7c3c
000000c0: b202 51bf 8eea 2bbf 58b0 a73f 105b a2bf
000000d0: 78ea e0be 6d3c 9dbf 8143 10bf 93ea 883f
000000e0: 3e70 823c 96de 3abf a2fa 493f 30d1 8a3e
000000f0: f61f ea3e 19cc 14bd a789 6b3f c433 17c0
00000100: cb49 c7be c1df 01c0 a5e9 e2bf 9b3a 13ba
00000110: c3bb 8abf 3c63 c73e 7987 463e 3d56 ee3e
00000120: deb6 8e3e 3bea 633f 6afa 213f 4df8 3abf
00000130: 4ef4 05bf 2ffc 08bf 5eda 0e3f a31f 53be
00000140: 1ac4 b13f 3de3 9abf 331b edbd ca59 8f3f
00000150: e9cd cb3f b264 3abe 9a9c 7e3e abe8 8cbf
00000160: 2b3a 55bf d185 8e3d a619 133f b98c 8ebf
00000170: 2b78 26bf bf8f 69bf a148 babe 39de 80bf
00000180: 3b08 13bf 7ac3 26bf 5857 1540 8544 ab3f
00000190: 8997 1abe 969b debe 26f1 24bf 407e c23d
000001a0: e44d ef3e e13f 843f 6849 1c3f af71 43bf
000001b0: 81e4 903f 2250 103e 5f8a 923f 0350 e3bd
000001c0: fb16 98bf de9c 273f 9b01 7bbe fd39 67bf
000001d0: c5a1 693f 7b9a 963f 81fc a5bf 7280 a33d
000001e0: 314e 22be cccf b13f ac9a 1ebe 32ec 70be
000001f0: d0ee e33e 0953 35bf 2086 83bf 751d 273f
00000200: f5a1 d63e 00db 29bf 15f7 d4bf 4fb0 3bbf
00000210: cbef ea3e 15e7 7c3f d0c9 07bf 033b e63f
00000220: fec5 123f f74f 793f 7606 393f 74a5 6abf
00000230: 4db0 99bf a566 efbf cb5b 7ebc cc50 44bf
00000240: d8b3 93bf 49ff c9b9 f7da 643f 7c8b 743f
00000250: 76f9 7ebe e7a9 8c3f dc83 90bf 585c fe3f
00000260: 6936 c1be 08a5 6f3e 51d4 933f 721d aebf
00000270: cd68 cf3f 203a c93e 580a d8be 6785 74bf
00000280: 1870 86bf 9f04 0c3d a10a 623d de42 f23e
00000290: dc61 43be dbef 15be 79ce c1bf 3e3c c4bf
000002a0: f8ee 3a3e 460b a1bf 71df 803f bbe1 5a3f
000002b0: 9b94 c3bf 7ed6 a03d c1e2 8f3f c12e dbbe
000002c0: 3f18 8abf 3b23 723e 02cf 853f 50aa 5fbf
000002d0: 65b8 acbc 01f6 a6be 986b 14be ad99 5c3d
000002e0: 0061 5d3f b263 413f cb1c 6abd 74b5 e9bf
000002f0: 1f56 8f3e b8ee 2abf 3f3d c4bf 258c 1cbf
00000300: 9eea a6bf f0f7 a3bf c54d 08bf 8944 9ebf
00000310: f6f9 51bf 7c6a 713d 6e32 893f 95fc c73f
00000320: 7779 a63c 0bcf 4a3e c13a 08bf 38b1 afbe
00000330: cfe8 0cbf 9c54 febf e4bf 66bf e3b8 91bf
00000340: 380a 513e 19e5 943e 161c 9dbf cb8f 66be
00000350: 37fd 2fbf 0816 d1be 29ab e0be 1201 9c3f
00000360: 68c5 c7bf b3cd 2dbf cde1 f4be 0b5d 7cbf
00000370: 7f32 2a3f 5b6d e9be 4d76 0f3f 71b2 a4bd
00000380: 2100 51bf 5e5c d23a c6a1 68bf 4dea 23bf
00000390: e7cd bebf 2004 6f3e 9480 54bf 9832 a5be
000003a0: db06 7b3e f259 4f3e 738e e23f f2f1 93be
000003b0: b517 973f ad96 c5be da2f 093b 77d8 8c3f
000003c0: 3b0c e3bf 4d7e 24bf 5b53 f9bd 848c 27bf
000003d0: 4e85 f1bc 67e9 d4bd 45ae d7be 027e 14c0
000003e0: 1e0e 013f db07 183f 17c8 37bf 6f59 823f
000003f0: 10b8 b4bf 6e9e e5be ea47 aebf 81f2 ebbe
0.30751565 -0.40993482 -0.63846064 0.39833593 0.90202993 -0.8128207 1.5709076 0.16208892
-1.030435 1.3177716 0.5218045 0.11290947 0.11348052 -1.3052783 0.038438857 0.73475885
-0.14483121 -1.293401 1.0762874 -0.416231 0.12678492 1.4275821 -0.60510665 0.571976
0.15177597 -1.1944592 -0.8138275 0.3520988 0.16810778 -0.65412563 -1.1476755 -1.0565718
-0.8292281 0.61621886 -0.8820673 0.8389448 -1.0254526 -0.32634443 -1.0695269 1.1646187
-0.019220578 -0.058548845 0.41990316 0.8372909 0.49705347 0.36011738 0.2524687 0.015420955
-0.8164474 -0.6715478 1.3100691 -1.268404 -0.43928885 -1.2284065 -0.56353 1.0696586
0.015922662 -0.7299589 0.7889806 0.27112722 0.4572751 -0.036327455 0.92006916 -2.3625345
-0.38923487 -2.0292819 -1.7727553 -0.0005616338 -1.083855 0.38942897 0.19387616 0.4655017
0.27873892 0.8902928 0.63272727 -0.73035127 -0.52325904 -0.535098 0.5580195 -0.20617537
1.388797 -1.2100598 -0.115774535 1.1199276 1.5922214 -0.18202475 0.24864426 -1.1008505
-0.8329188 0.06959117 0.5746101 -1.1136695 -0.6502711 -0.91234964 -0.36383536 -1.0067817
-0.57434434 -0.65142024 2.333456 1.3380286 -0.15096869 -0.43478078 -0.64430463 0.094967365
0.46739113 1.0331994 0.6104951 -0.7634534 1.1319734 0.14093068 1.1448478 -0.110992454
-1.1882013 0.65473735 -0.24512331 -0.9032286 0.91262466 1.1765894 -1.2967683 0.079834834
-0.1585014 1.389154 -0.1548869 -0.23527601 0.44518137 -0.70829827 -1.0275307 0.6527932
0.41920438 -0.6634979 -1.6637903 -0.733159 0.45886073 0.98790103 -0.53042316 1.7986759
0.5733336 0.9738764 0.72275484 -0.9165871 -1.2006928 -1.87032 -0.015524815 -0.76685786
-1.1539259 -0.0003852791 0.89396614 0.95525336 -0.2489985 1.098935 -1.129024 1.9871931
-0.37736824 0.23402798 1.1549169 -1.3602736 1.6203858 0.39302158 -0.42195392 -0.95516056
-1.0502958 0.034184095 0.055185918 0.4731664 -0.19080299 -0.14642279 -1.5141135 -1.5330884
0.18255222 -1.2581565 1.0068189 0.8550069 -1.5279726 0.07853411 1.1241075 -0.42809108
-1.0788649 0.23646252 1.0453799 -0.8736925 -0.02108402 -0.3260956 -0.14494169 0.053857494
0.86476135 0.7554275 -0.057156365 -1.82585 0.27995393 -0.66770506 -1.5331191 -0.61151344
-1.304035 -1.281004 -0.53243667 -1.2364665 -0.82022035 0.058939442 1.0718515 1.5623957
0.02032159 0.19805543 -0.5321465 -0.34314895 -0.5504274 -1.9869571 -0.9013655 -1.1384548
0.20414054 0.29081038 -1.2274196 -0.2251579 -0.6874575 -0.4083712 -0.43880585 1.2187827
-1.5607119 -0.67892 -0.47828522 -0.9857947 0.664833 -0.45591244 0.5603989 -0.080418475
-0.8164082 0.0016049256 -0.90871847 -0.6402939 -1.4906586 0.23341417 -0.83008695 -0.32265162
0.24514334 0.20249155 1.7699722 -0.28895527 1.180411 -0.3859152 0.0020933063 1.100356
-1.7738107 -0.6425522 -0.12174102 -0.65448785 -0.02948251 -0.103960805 -0.42125145 -2.320191
0.50412166 0.59386986 -0.7178969 1.0183543 -1.4118671 -0.44847435 -1.3615696 -0.46083453

embeds.1.weight f4 [2, 1]
00000000: a161 88be 6f60 c33e
-0.26636985 0.3815951

embeds.2.weight f4 [7, 4]
00000000: c2b7 a73e 54fa 0a3e dc95 413f 2ee5 b1bf
00000010: d315 de3e 769f 24bf 145a 7a3f c995 c33e
00000020: 923f b03f 2cb4 8ebf e246 9fbf 6eb5 aa3e
00000030: c47b 0f3f ec44 8ebe 0059 e9bf d8e6 b5bf
00000040: dca6 debe 2e82 debe aaa1 a73f 13b3 b73e
00000050: 5dcd ad3f 19ad 16bf a152 89bf 7e66 b1be
00000060: 03ef 273f cf82 16bf 7803 c4be bf94 583d
0.32757384 0.13572055 0.7561929 -1.3898065 0.43376026 -0.6430582 0.977937 0.38200215
1.37694 -1.1148734 -1.2443507 0.33341545 0.56048226 -0.27786958 -1.8230286 -1.4211073
-0.4348668 -0.43458694 1.3096211 0.3587881 1.3578297 -0.58857876 -1.0728341 -0.34648508
0.6559908 -0.5879335 -0.38283896 0.05287623

embeds.3.weight f4 [14, 7]
00000000: ad6c 333e bf8b 893f 043d 8f3f 5e0e b0be
00000010: 1e18 7a3f e5a8 013f 722d 79bf a55b 9f3e
00000020: 8595 6cbf 1770 363f 32ec 823e dac8 32bf
00000030: f018 09bf acdb 963f 783f 6e3f 4219 9fbe
00000040: 5751 8c3e 1ed9 31bf a27e 673f c288 dbbe
00000050: d915 94be 73aa 83bf 58d9 3d3e da36 c23d
00000060: d4a6 b2be b814 873f 6981 a8be 2261 35bf
00000070: 3b6a 09bf cf12 a8be 2a91 d4be d8ca 9ebe
00000080: 7d0e b0be bc61 e0bc ad2c 49be 321b 8cbe
00000090: da32 59bf 7c47 a23e 6fa5 9f3f 236d 98bf
000000a0: 2d26 263f c673 2cbf 1778 39bf d60e 3d3e
000000b0: 06dd cb3e 8cdd 613d 5d7e 083f 3b71 50be
000000c0: 2fdc 80bf 5d8e 303f c6b6 29bf cd44 953e
000000d0: 0ae7 283f d1f3 acbf a2d8 233f 6349 34bf
000000e0: f9d8 013e dd8f da3d 56a6 49be 3d09 95bf
000000f0: 1826 403e 0115 17bf b403 5fbf 235a 943e
00000100: 608c fd3e af69 f7be 254f 7b3f 8a4d 633f
00000110: 8f8a 31bf cf71 01be a012 863f da5e 84be
00000120: fe9f 16bf d93a 8a3f d07e c43d 66f5 423e
00000130: ebaf 67bf b025 7cbd 7028 213f 9a3b 45bf
00000140: 66c6 983f 124f 27bf b3fc b23e f50c 473f
00000150: d77a 16bf 2415 b83f 213e 21bf 6846 a93d
00000160: 4190 5ebf 093e 8a3e 6a3f 4e3e 639f 9fbf
00000170: 3291 a63f d081 4cbf b198 b73e 6e7f ac3f
00000180: 0eb9 f13e 9874 8bbf
0.17521925 1.0745772 1.1190495 -0.3438596 0.9769305 0.5064834 -0.9733497 0.31124607
-0.9241565 0.71264786 0.25570828 -0.69837725 -0.53553677 1.1785789 0.93065596 -0.31073958
0.27405807 -0.6947192 0.904276 -0.42877775 -0.28922918 -1.0286392 0.18539941 0.09483118
-0.34892905 1.0553198 -0.32911232 -0.7085134 -0.5367772 -0.3282685 -0.41517 -0.31014132
-0.34386054 -0.027390353 -0.19645949 -0.27364498 -0.8484322 0.31695163 1.2472361 -1.1908306
0.64902 -0.67364156 -0.7244887 0.1846269 0.39817065 0.055142924 0.53317815 -0.20355694
-1.0067195 0.6896723 -0.66294515 0.29154053 0.6597754 -1.3511907 0.6400243 -0.7042448
0.12680425 0.10671971 -0.19692358 -1.1643444 0.18764532 -0.59016424 -0.87115026 0.2897502
0.4952116 -0.48322818 0.9816764 0.8879019 -0.6935205 -0.12641071 1.0474434 -0.25853616
-0.5883788 1.0799209 0.095945 0.19038925 -0.90502805 -0.06155938 0.6295233 -0.7704407
1.1935546 -0.65355027 0.3495842 0.77754146 -0.5878119 1.4381452 -0.62985426 0.08265382
-0.86938864 0.27000454 0.20141378 -1.2470516 1.301306 -0.7988558 0.35858682 1.3476388
0.47211498 -1.0894957

bn_cont.weight f4 [6]
00000000: 485f 9a3f 20d2 983f 71cb ae3f 3c3d 973f
00000010: 6bdf 2c3f 9af5 be3f
1.2060328 1.1939125 1.3655835 1.1815562 0.6752841 1.4918702

bn_cont.bias f4 [6]
00000000: eff6 c4bb 49b6 b2bc c26b 57bd b0da e0bd
00000010: 2f51 c9be 149e 87be
-0.006010882 -0.021815436 -0.052593 -0.10979211 -0.3931975 -0.26487792

bn_cont.running_mean f4 [6]
00000000: e3f3 93c2 3e01 2342 fef2 93c2 c601 2342
00000010: 55ad ad3f 639d 5540
-73.97634 40.751213 -73.974594 40.75173 1.3568522 3.3377311

bn_cont.running_var f4 [6]
00000000: f1aa 893a e0a7 2f3a 7c3e 893a 1973 733a
00000010: 820a 183f f0e8 3841
0.0010503215 0.00067007355 0.0010470892 0.0009286865 0.59391034 11.5568695

layers.0.weight f4 [200, 30]
00000000: 365a 983d c1fd 65bd f631 3fbd 4702 023e
00000010: b28b bfbd ead3 293e 9a0a bbbd b46a 153d
00000020: 3b63 a6bd 94c8 ad3b b490 d6bd 6868 b5bd
00000030: 587e d7bd 8ddf 89bd 085c b13c 73d8 05bd
00000040: 5ad2 a7bd f250 613d b768 c7bd c975 c7bd
00000050: 711b 93bd 0418 063e 79d7 59be 9ee5 b73c
00000060: 0ecb 24be 7489 823e 52d9 17be a49c 213e
00000070: 523b ba3d 206e 173c 672a 83bc ad49 e13c
00000080: caf2 cabc 4e78 e13b 5c3d 153c 7cbc b0bc
00000090: ddec e3bc 415b cd3a 2702 ce3a 7712 ad3b
000000a0: ac62 4a3c f07f 983c a8ae 09bc b6a3 11bd
000000b0: 22d5 a53d 7a63 19bd dabb a63c 2161 0e3d
000000c0: 9d23 debb 4eda 903c b3fa 06bd 4645 663b
000000d0: 53a4 dc3b a176 f03c e62d 7fbe 4d46 f53d
000000e0: 55a1 f5bd afa2 c93d 9947 b13d d4a6 12bf
000000f0: 6a68 e33c ebab a03d 882f b53b d74a 163c
00000100: e115 aa3d 56b3 013c 3821 1bbd fcf4 60bd
00000110: d4dc 3e3b cc94 353d e75e 60bd aa3c aebb
00000120: 9cbb 2dbc 8331 a9bd 40f1 203e 9aa5 a9bd
00000130: dc9f 083d 72e2 cf3c 7f8b 963d 8bf0 8dbd
00000140: 373a 04bd 09c3 053d 3b94 e4bc 01b8 a5bc
00000150: adae 96bd 8cda 0d3f 7c82 19be da56 0abd
00000160: a1f6 fabc 32b6 12bd 89e2 eabc 4b0c 863d
00000170: 8852 a33b 5496 d8bb 3387 a5bd 0c10 d33d
00000180: df86 c8bc 1fda 23bd 1213 383c 61b8 ec3c
00000190: fa7d e0bc a793 cdbd 2668 b6bd 87c5 bd3d
000001a0: 34df 503c 00f0 b83d 7c3a 6cbc 39f1 cbbd
000001b0: e882 203d ba6b b2bd bf4e af3d 155d dcba
000001c0: fad5 9bbd 94be 7fbd bb01 c33d 8e3c 9e3d
000001d0: f7bd 823d 5f22 63bd 2271 1f3e 6c33 ffbe
000001e0: 324c 823d e724 cabd b1e1 2cbd 5ad2 083c
000001f0: 3bcc 303e eb55 55be 73a9 b43c 990b 513d
00000200: 4bde f13d 4a80 0a3e 3778 31bc 0453 adbd
00000210: 7eee 293e 77e2 e7bc 0796 f73d f44c 3c3e
00000220: 33f3 983c 4335 e73d 9c4b 7d3d 0aad 7ebd
00000230: d249 c63c c972 2d3e 2218 48be ecb8 013e
00000240: 8187 cdbd 4585 86be 90d5 d03c 5039 41be
00000250: 99cb d33d 634d 72be 6443 ebb7 5542 8aba
00000260: 7984 a93c f300 d83b fca8 99bc 375f 09bb
00000270: 7bb0 843a 246a 0b3c 3048 9cbc 8781 7cbb
00000280: 4b68 cd3b ebc3 f3ba 357d e83d 7f22 cdbc
00000290: 62b5 1dbd 111e 4c3c 5c5f c2bb 2e6a e3bc
000002a0: cdc0 5d3c 6cb6 413b ec8f b73c 1730 03bd
000002b0: 7ccb 79bc adf5 b1bb 194d 793e 9177 a2bc
000002c0: bf78 e9be 8051 9f3e 8c2a d13b e4e5 9abd
000002d0: 83f0 8dbd 3792 a6bd 511a 9d3c 48bc eb3c
000002e0: 3485 43bd e571 f93d 199c b33d 0a65 613b
000002f0: f578 b2bd 33bc c3bc dbda ec3c 34f0 ab3c
00000300: 38bd 9f3d ffc9 ebbc 7fe9 ed3d ea39 40bb
00000310: a302 013d 2c40 803b f02a f7ba bbfe 36bc
00000320: fafd f43c 4e0c 543d dea7 9d3d cb1e 05be
00000330: a496 5bbd e638 8b3d 0904 ba3d db73 aebd
00000340: f449 bb3d 3692 a83e cd96 173d ae21 5bbd
00000350: 2f5a f03d 9a44 ccbd 3b67 9dbc 5f1b d63d
00000360: fe64 05bd 7dbe 38bd adac a33c c18e cabd
00000370: c51b 603c 1896 a5bc 2159 f33d 350f 1d3d
00000380: f209 67bd d095 de3b abcb 76bd b786 d6bc
00000390: 8cfc 1b3d 89fc 543d bdcd aabd e707 673c
000003a0: f4d6 703d 8369 473d 1871 73bd 9343 00be
000003b0: a596 393d 96b0 613e 44d5 69be 584b c1be
000003c0: 07af ff3d f5ea 4bbc 85bc 0cbd 60cc 01bd
000003d0: e735 8abd cab8 6abd 2d39 83bc b3ca 5b3b
000003e0: 5a7b bc3c 5d42 acbd 0d47 ee3d 4061 d1bc
000003f0: 4f42 43bd 1a4c dfbd 9257 ff3d 6875 a13c
0.07439081 -0.0561502 -0.046678506 0.12696181 -0.09352817 0.16584745 -0.091328815 0.036478713
-0.081243955 0.005303452 -0.10476819 -0.088578045 -0.10522145 -0.06732092 0.02165033 -0.032677125
-0.08194418 0.055008836 -0.0973677 -0.097392626 -0.071829684 0.13095099 -0.21273603 0.022448357
-0.16093084 0.25495493 -0.14828995 0.1578241 0.09093346 0.009242564 -0.01601143 0.027500952
-0.024773974 0.0068807965 0.0091088675 -0.021574251 -0.027822906 0.0015667455 0.0015717194 0.005281742
0.012352627 0.018615693 -0.008403458 -0.035556518 0.080972925 -0.037448384 0.020353246 0.034760598
-0.006779148 0.01768222 -0.03295393 0.0035136505 0.006733456 0.029353442 -0.24919853 0.119762994
-0.11993662 0.098454826 0.08656234 -0.5728581 0.02775975 0.07845291 0.005529348 0.009173117
0.08304954 0.007916292 -0.037873477 -0.054921135 0.0029123323 0.044331357 -0.054778006 -0.0053172903
-0.010603812 -0.08261397 0.1571703 -0.08283539 0.03335558 0.025376532 0.073508255 -0.069306456
-0.03228208 0.032656703 -0.027902713 -0.020229341 -0.073575355 0.554116 -0.14991182 -0.033774234
-0.03063518 -0.035818286 -0.028672474 0.065453134 0.0049842037 -0.0066097174 -0.08082428 0.10305795
-0.024478374 -0.04000294 0.0112350155 0.028896512 -0.02740382 -0.10037928 -0.089065835 0.09266191
0.012748528 0.09030151 -0.014418241 -0.09958119 0.039187342 -0.087119535 0.085599415 -0.0016812409
-0.07609172 -0.06243761 0.095218144 0.07726394 0.06383889 -0.0554527 0.155705 -0.4984392
0.06362189 -0.0987032 -0.042207424 0.008350933 0.17265408 -0.20833556 0.022053456 0.05103645
0.11809977 0.13525501 -0.010831884 -0.084630996 0.16594884 -0.028306229 0.12089162 0.1838873
0.018670654 0.11289456 0.061839685 -0.06217674 0.024205122 0.16938318 -0.19540456 0.12668198
-0.10035611 -0.26273552 0.02549246 -0.18869519 0.103415675 -0.23662333 -2.8045564e-05 -0.0010548333
0.02069305 0.00659191 -0.018757336 -0.0020961293 0.0010123396 0.008509193 -0.01907739 -0.0038529353
0.006268536 -0.0018597817 0.11352006 -0.025040863 -0.03850306 0.01245834 -0.005931778 -0.027760591
0.013534737 0.0029558195 0.022407494 -0.032028284 -0.015246268 -0.005430898 0.24345817 -0.019832404
-0.45599934 0.31116867 0.006383246 -0.075633794 -0.069306396 -0.08133357 0.019177588 0.028776303
-0.047734454 0.12179927 0.08770008 0.00343925 -0.08714477 -0.023893451 0.028912952 0.020988561
0.077997625 -0.028782843 0.116168015 -0.0029331394 0.031496655 0.0039139 -0.0018857401 -0.011169131
0.029906262 0.051769547 0.07698034 -0.13000028 -0.05361046 0.06797962 0.09082801 -0.085181914
0.09144965 0.3292405 0.03700905 -0.053498916 0.11735951 -0.09974022 -0.019214263 0.10454439
-0.032567017 -0.04510354 0.0199798 -0.098905094 0.013678496 -0.020213172 0.11882234 0.03834458
-0.05640597 0.0067927614 -0.060252827 -0.026187284 0.038082644 0.05199865 -0.08340023 0.014101005
0.058798745 0.04868461 -0.059434026 -0.12525778 0.04530968 0.22040018 -0.2283526 -0.37752795
0.12484556 -0.012446155 -0.034359474 -0.031689048 -0.06748562 -0.057305135 -0.016018474 0.0033537566
0.023008037 -0.08411095 0.116346456 -0.025559068 -0.04767066 -0.10903187 0.124678746 0.019709304

layers.0.bias f4 [200]
00000000: 2c53 c3bd 5470 31be 39cb 5abe f606 41bd
00000010: 6aa9 11be fb92 6bbe 9b14 b2bd 4cd1 903e
00000020: d93a da3d 6801 0c3e ac78 2e3d 11c3 b03c
00000030: 4590 ba3e 1f4f afbb 1d2a 563e c076 8fbd
00000040: 037c 88bb ea94 803e cbb3 283d 527f 433e
00000050: 9320 8dbd eb49 843e 92ef 853e 2d7b cd3d
00000060: 5926 89be b8b0 03be af9a 813d e0f8 ca3e
00000070: cca1 e73e 0c77 603e 4c10 75be b503 2dbd
00000080: e2a6 1b3e 0dc3 ddbd e02e a33e 62a0 9d3d
00000090: fb33 3cbd d1c3 893e 416d a33e 2a88 c6bc
000000a0: 7f28 b2bd 0cad 563e ecd3 e3bd bc31 033f
000000b0: 76d9 853e 12b9 543e 720b d93d 9bf9 063e
000000c0: 1bfb 64be 6485 1fbe 4ef1 813e 83b9 f9bd
000000d0: bb18 263c 778f 71bd e520 313e 3465 133e
000000e0: e50a 88bd 0c4b c3bd 164d 053e ae88 9b3e
000000f0: 7d0f 0cbd 3752 c63d dc70 27be ee73 7b3d
00000100: 0454 6fbd 0baa 883e 8e7e ef3e 9a75 03bc
00000110: 0218 d43e cf30 7ebd 1f31 903e 6132 343d
00000120: f1da 8e3d b95e bbba 446c a03d e9f0 9f3e
00000130: 11a2 1b3e 9cc0 d03d 6656 bc3c 55ce 5e3e
00000140: 3734 65be 5b95 653c 59fc 163e b6a3 a53d
00000150: 411f 19be ec20 87bb 647b 0d3e a131 5a3e
00000160: cb0f c43d ed15 923e 765d 843e 65fd bf3d
00000170: e7ab 2d3e de6a 8dbe 30c0 48bd bc68 943e
00000180: 30a9 1f3b 4cc1 b53e bd7a 7fbe 3a73 243c
00000190: 258a 993d 8a3f 233e 9137 043e 2a2e cd3e
000001a0: 429c 20be 2a65 eebd 87f9 1bbe 2469 083e
000001b0: dfed 80bd 192d b03e 1086 613e 0cf3 383e
000001c0: 0968 813e b234 843e 9e2c 633e 0139 bf3c
000001d0: aa3e 22be 27d0 e4bd 0f14 94be 27ee 00bd
000001e0: fc1e 043f 7d34 453e f472 053e 783a aebd
000001f0: a711 e1bd 30ce 8f3e e71a 25be 3113 79be
00000200: 3aaa 07be 25a1 0cbd 04ee 2f3e 2808 c0bd
00000210: 9c64 a7b8 c32c 543d a150 933d 98e9 193d
00000220: ca34 68bd 5978 a93e 3a80 f3bd 75d5 a43d
00000230: 9aae 05be ccd2 8a3e 3b2b 2bbe f71f 013e
00000240: b462 d73d 18a9 bb3d 8ce7 a63c 448f 42bc
00000250: 40d6 f1bc e9d3 ad3e 1896 cabc 14c6 953e
00000260: 616b 493e 1fd7 ad3d f701 37bd 6f21 2d3d
00000270: 074e 96be e4df 9d3e 5883 edbd 44a0 45be
00000280: 3da2 8dbe 16bd 31be bd56 0b3e fc56 863e
00000290: 089b 9c3d 0bae a8bd ce09 9abd b87d 813e
000002a0: 2c31 11be 0cd1 04be cb0f a83e 25f3 2cbd
000002b0: 0422 20bd aac7 6dbe c130 113d 5f95 883e
000002c0: 2a25 933d 77c1 b53c 04a0 13bd 7ecf 64be
000002d0: 1ea9 4ebe ce18 2cbe bf14 ae3d 9ccc 43be
000002e0: 3e0e 913e e4ea db3d 5433 47be ddcb 2b3e
000002f0: bdee 46be cad6 233e 5053 eabc b5a9 8f3d
00000300: 2d46 cc3d 55bb 773c 9ca2 63bd 7dd8 1f3d
00000310: a1e2 0d3e d08f d0bd c825 73be b14b 063e
-0.09537348 -0.17328006 -0.21366586 -0.04712578 -0.14224783 -0.23005287 -0.086953364 0.2828468
0.106557555 0.13672411 0.04259555 0.02157739 0.36438194 -0.005350008 0.20914502 -0.07005072
-0.004165174 0.25113612 0.04118709 0.19091538 -0.06890979 0.25837645 0.2615934 0.100332595
-0.2678707 -0.12860382 0.06328332 0.39643002 0.4524063 0.21920413 -0.23931998 -0.042239863
0.1520038 -0.108282186 0.318717 0.07696606 -0.04594801 0.2690721 0.31919292 -0.02423485
-0.0869913 0.2096445 -0.11124405 0.51247764 0.26142472 0.20773724 0.10597886 0.13181154
-0.22361414 -0.15578228 0.25379413 -0.12193587 0.010137732 -0.05897471 0.17297705 0.14394075
-0.06642703 -0.095357984 0.13017687 0.30377716 -0.03419446 0.0968365 -0.16351646 0.061389856
-0.058429733 0.26692232 0.4677624 -0.008023644 0.41424567 -0.062058266 0.28162476 0.043993358
0.069753535 -0.0014295197 0.0783315 0.31238487 0.15198542 0.10192987 0.022990417 0.21758397
-0.223832 0.01401266 0.147447 0.08087866 -0.14953329 -0.0041237976 0.13816601 0.21307994
0.09573325 0.28532353 0.25852555 0.09374503 0.16960107 -0.27620596 -0.04901141 0.28986156
0.0024362318 0.35499036 -0.24949165 0.010037238 0.07497052 0.15942207 0.12911822 0.40074283
-0.15684608 -0.11640389 -0.15231906 0.13321358 -0.0629537 0.34409407 0.22023797 0.18061465
0.25274685 0.25821453 0.22184989 0.023342611 -0.15844217 -0.111725144 -0.28921553 -0.03147712
0.5160978 0.19258304 0.13032132 -0.08507246 -0.10989695 0.28086996 -0.16123544 -0.24323727
-0.1324853 -0.034333367 0.1718064 -0.09376556 -7.9819205e-05 0.0518005 0.07193113 0.037576288
-0.05669097 0.3309963 -0.11889692 0.08048526 -0.13054886 0.2711395 -0.1671571 0.1260985
0.10516873 0.091631114 0.020374082 -0.0118749775 -0.029521108 0.33950737 -0.024729773 0.29252684
0.19669868 0.08488297 -0.04467961 0.042268213 -0.29356405 0.30834877 -0.115973175 -0.19299418
-0.2766284 -0.17357287 0.13607307 0.2623824 0.07646757 -0.08236321 -0.07521401 0.25291228
-0.14178914 -0.1297037 0.3282455 -0.04222407 -0.03909494 -0.23220697 0.035446886 0.2667646
0.07184823 0.022186978 -0.036041275 -0.22344777 -0.201817 -0.16806337 0.08500051 -0.19121021
0.28331178 0.10738161 -0.19453174 0.16776986 -0.19427009 0.15999904 -0.02860418 0.07014791
0.099743225 0.015120347 -0.055575 0.03902482 0.13855983 -0.1018368 -0.23744881 0.13114811

layers.2.weight f4 [200]
00000000: 977b 803f cb6a 773f 9247 893f 502d 803f
00000010: aebc 833f 221c 843f 59d7 743f 601a 843f
00000020: 7901 843f 496e 6e3f 90bf 6e3f f81a 873f
00000030: 18d0 823f 8a27 7d3f 41b5 663f 6bc7 6b3f
00000040: f1ef 713f 3f8b 803f 939f 7d3f d079 7d3f
00000050: 896c 6d3f 4c51 733f 412a 673f 0875 763f
00000060: 6008 843f 205a 5f3f bd43 763f 4dd0 823f
00000070: 2f6e 703f c1d2 6c3f f873 813f 01c7 763f
00000080: af74 6c3f 0c00 6d3f 3497 783f 4b9a 773f
00000090: 0e73 803f 95eb 6a3f 55e4 813f e84e 8d3f
000000a0: 8d2d 603f 3943 813f 1922 793f afc3 823f
000000b0: b245 813f 9870 713f 7394 883f 433f 7a3f
000000c0: 0400 7e3f 00ff 803f 1039 803f e747 6e3f
000000d0: 9416 823f d6c7 763f c516 663f e486 793f
000000e0: 972c 6b3f fd52 813f 3499 6a3f 274b 6f3f
000000f0: 2363 703f 3165 6f3f 3420 823f debb 6d3f
00000100: 59b4 843f dd84 723f 2bd7 783f 6c2d 703f
00000110: 122f 753f 59bd 6c3f f5cb 753f 445c 703f
00000120: 2ff6 6d3f 058d 813f 2a15 613f 3e7a 723f
00000130: 8275 723f 7b10 763f 92a3 673f 61ae 713f
00000140: d036 733f e13f 813f 678f 653f 2f7d 6f3f
00000150: 5c46 7a3f 25c1 853f f149 913f 9049 643f
00000160: 01a2 6b3f 9e62 843f 469b 7f3f 1653 793f
00000170: ecef 773f 5551 873f 8d33 883f 2f93 7f3f
00000180: 4462 773f 5c08 803f effb 7c3f 862c 7c3f
00000190: 2d20 7e3f 0609 813f eb81 603f 7549 863f
000001a0: 2023 6a3f ae9a 773f 8b55 823f b17a 873f
000001b0: 4980 9c3f 93f8 803f d748 7e3f e0cd 7a3f
000001c0: 263e 7c3f ba92 783f 5f16 7d3f 9827 733f
000001d0: 101f 823f 14e7 823f 3ba6 943f a016 683f
000001e0: 0987 783f 2eca 7b3f 28ab 753f 50f7 753f
000001f0: 1fe4 693f 5f15 703f 8df0 733f 53c1 823f
00000200: 3cbb 733f 19a9 763f 1414 7a3f 99a2 793f
00000210: b691 6b3f 6ddf 713f 9a1b 813f b65d 823f
00000220: 2f2d 7c3f fb33 8f3f 2038 6e3f 535b 7f3f
00000230: 4659 7b3f ba2f 833f 8953 8d3f 2c6b 733f
00000240: b0d6 833f e14f 833f 64f4 803f 4d44 6c3f
00000250: 6662 a23f 4496 7b3f 20f4 743f 5e0b 873f
00000260: 5f98 6e3f 6239 773f 0249 743f 2a4e 693f
00000270: c4ab 773f 356f 7e3f 4105 6a3f ba54 703f
00000280: 7ecb 843f 7c81 833f c1a3 833f 4dd5 693f
00000290: 1f74 7d3f 6b07 613f 7e61 813f 628f 7f3f
000002a0: 19a9 7b3f f42d 813f 195b 753f 2658 6f3f
000002b0: 4470 763f a3c6 7e3f d339 793f 3cac 7a3f
000002c0: e454 843f 01af 803f ef7f 7c3f 237d 6f3f
000002d0: 388d 763f 689d 7f3f 572c 7e3f 1914 793f
000002e0: 88a0 7c3f 2bf8 6c3f 2e1c 813f d6d1 713f
000002f0: 8693 5a3f a34a 7a3f 71b4 753f 05a1 7b3f
00000300: 170d 783f 3632 673f c0e8 6e3f 3f05 6c3f
00000310: 36d4 7e3f 22d9 6f3f 15c0 6b3f 326c 613f
1.0037717 0.9664733 1.0724967 1.0013828 1.0291955 1.0321085 0.95641094 1.0320549
1.031295 0.9313703 0.9326105 1.0555105 1.0219755 0.98888457 0.9012032 0.9210116
0.94506747 1.0042495 0.99071616 0.99013996 0.92743737 0.95045924 0.9029885 0.96272326
1.0315056 0.87246895 0.9619711 1.0219818 0.93918127 0.92509085 1.0113516 0.96397406
0.92365545 0.92578197 0.9710572 0.9671981 1.0035112 0.9176572 1.0147806 1.1039705
0.87569505 1.009864 0.97317654 1.0215968 1.0099394 0.9431243 1.0670303 0.9775278
0.99218774 1.007782 1.0017414 0.93078464 1.016314 0.96398675 0.89878494 0.9747145
0.91864914 1.0103451 0.9164002 0.9347405 0.9390127 0.9351378 1.0166078 0.9286479
1.0367538 0.94733983 0.9720332 0.9381931 0.9577495 0.9247642 0.9601434 0.93890786
0.9295377 1.0121161 0.8792292 0.94717777 0.9471055 0.961189 0.90483963 0.94406706
0.9500551 1.0097619 0.8967194 0.9355039 0.9776361 1.0449568 1.135069 0.8917475
0.92044073 1.0342596 0.99846303 0.97392404 0.96850467 1.0571696 1.0640732 0.9983396
0.96634316 1.0002551 0.9882192 0.9850544 0.99267846 1.0080879 0.8769824 1.0491167
0.91459846 0.967204 1.0182356 1.0584317 1.222665 1.0075859 0.99329895 0.9797039
0.9853233 0.97098887 0.9886226 0.9498229 1.016573 1.022677 1.161323 0.90659523
0.9708105 0.98355377 0.9596429 0.96080494 0.9136371 0.9378261 0.95288926 1.0215248
0.9520757 0.9635177 0.97686887 0.9751373 0.9201921 0.94481546 1.0086548 1.0184848
0.98506445 1.1187738 0.9305439 0.99748725 0.98183095 1.024894 1.1041118 0.95085406
1.0299892 1.0258752 1.0074582 0.9229172 1.2686279 0.9827616 0.95685005 1.0550344
0.9320125 0.96571934 0.954239 0.91134894 0.9674647 0.9938844 0.91414267 0.9387928
1.0374601 1.027389 1.0284349 0.91341096 0.9900531 0.87901944 1.0107877 0.9982816
0.983049 1.0092149 0.9584213 0.9349388 0.96265054 0.99521846 0.9735386 0.9791906
1.0338407 1.0053407 0.9863271 0.9355032 0.9630923 0.9984956 0.9928641 0.9729629
0.9868245 0.92566174 1.0086725 0.9446081 0.8538135 0.97770137 0.95978457 0.9829257
0.96894974 0.9031099 0.933239 0.92195505 0.9954256 0.93690693 0.9208997 0.8805572

layers.2.bias f4 [200]
00000000: 5930 523d 3310 243e 34ef a53c ab40 be3d
00000010: afe7 3cbc 7660 09be 73ee 11be 0257 1e3e
00000020: 1daa f8bd 353d 393e fd6e 73bd c9a4 d9bd
00000030: 5aa2 f03d 2d6b 3abe dcdc 90be 8bbf 3fbe
00000040: 9e9a 31be 2472 9b3e 8bd9 033e e5da b43d
00000050: a9e8 d23c 6ffd 403e 46b8 26be 3844 8ebd
00000060: fa54 883b 4c5c 48be d627 4abe 2d2a 553d
00000070: 6f49 6c3e ded8 283e ed40 b33d ce09 4f3d
00000080: c310 293e f540 d4bd 14d5 173d 2f1e 44be
00000090: ecb7 bebd 2e78 693e 4ad9 1e3e 7d63 d33c
000000a0: 14cf 83be c692 6b3e 6015 37be a457 823e
000000b0: 6a92 6a3b aa8f f2bd 3a6a e73d 55ea bb3d
000000c0: fdcc 27be 9cbe cdbd e834 133e b4e9 47be
000000d0: f491 a2bd 7d81 bcbd 5d69 f1bd 613f 1dbe
000000e0: b9d2 29be 5f05 d0bd 765d a6bd 1c1b d53d
000000f0: e3b9 beba a2d2 f7bd 1d3e 40be 4c3f 5c3e
00000100: ed5b 86be 63f5 3c3e 967c 193e f9b9 f33d
00000110: 3e50 133e 97ce 92bd e079 323e c675 eb3c
00000120: 2c11 23be ded5 8d3e 9bfb 61be 925e 903e
00000130: 9169 ffbd e8fe 07be 0bfa 19bd 2398 0b3e
00000140: 48d9 48be 633b b23d b1d5 0fbe d841 1dbe
00000150: 726f 2cbe 82a3 d83a a347 1e3d 201e 2abe
00000160: 39c2 37be e61e 8d3e eeaa 843d ecbc cdbc
00000170: e6d8 323d 113e e8bd 0c77 343d 3883 ecbd
00000180: 34fc 4cbe 769e 3c3e a955 a7bd cd0f a9bd
00000190: 175f 7d3d 88e0 e6bb c268 243e bf3d 093e
000001a0: 565e 25be 70b8 debd 8282 6fbd 6c88 e93d
000001b0: 6f32 0a3e 382c e7bc c5b9 0b3e 5cb0 18be
000001c0: 381c 1d3e 999f 743e 1d20 82bd d49c bb3d
000001d0: f44f 51bd 4fb2 cebd 3125 8e3d 64ff 74bd
000001e0: d88f 173e 903e 7bbd 331d eebd 6106 cd3d
000001f0: 4bf7 29be a117 9a3d 9900 aebd ee1d 8fbd
00000200: 32d6 b03d bf93 ecbc 5639 cfbd c1f9 1ebd
00000210: 670c 27be 5ca5 5fbe bf5e 8f3d 94c4 4b3e
00000220: 041b d0bd bb5d 133e 6a52 48be a989 dcbd
00000230: e517 02be e3b4 113e 2568 4abb f611 0dbe
00000240: 480e 8fbd 3944 c6bc bec9 1f3e 2256 c9bd
00000250: 49a4 e23d ca31 0e3e f453 cfbd 76f2 573e
00000260: a759 11be 0e0c 3b3c 5759 17bd a191 f83d
00000270: 908b 50bd e2ae 273c 8a45 cb3c 5686 44be
00000280: c6d8 ea3c a9be 483e 2977 13be 448e 4e3e
00000290: bf74 b2bd 18f1 06be 1224 4b3d afbe 453e
000002a0: c151 8abd 9ee3 17be bb09 aa3e fe48 953d
000002b0: de8f 8ebd ef90 92bd 5b53 293e c6fd ddbc
000002c0: 93e0 243e 7fcf 82bd a4e5 7dbd 0aea 743d
000002d0: d212 12be d4bf e53c a865 273e e790 fbbd
000002e0: 48e9 0e3e c743 4e3e 07e8 3dbe 5229 01be
000002f0: b91c 2ebe e40e cabd 2c2d 593e f216 60be
00000300: a733 54be 37f5 df3d bedb 53be 5c93 adbd
00000310: a3c5 323e 7094 61be 01a9 67be 9c25 63be
0.05131564 0.16021805 0.020255663 0.09289678 -0.011529847 -0.13415703 -0.14251117 0.15462878
-0.121418215 0.18089755 -0.05943202 -0.106271334 0.11749716 -0.18204947 -0.28293502 -0.18725412
-0.17344138 0.3036052 0.12875955 0.08830813 0.025745707 0.18846677 -0.16281232 -0.069466054
0.0041605206 -0.19566458 -0.19741759 0.052042175 0.23074888 0.16488978 0.08752618 0.05054646
0.165103 -0.10363952 0.03706844 -0.19152139 -0.09312424 0.22799751 0.15512577 0.025804276
-0.25743926 0.23005208 -0.17879248 0.2545749 0.0035792836 -0.11843808 0.11299558 0.09175555
-0.1638679 -0.100461215 0.14375651 -0.19522744 -0.079379946 -0.092043854 -0.117876746 -0.15356208
-0.1658429 -0.101572745 -0.08123295 0.10405561 -0.0014551248 -0.12100722 -0.18773694 0.21508521
-0.2624201 0.18452983 0.14988932 0.11900706 0.14386079 -0.0716831 0.17429304 0.028742682
-0.1592452 0.2770223 -0.22068636 0.2819715 -0.12471307 -0.13280833 -0.037591975 0.13632254
-0.19614136 0.08702733 -0.1404636 -0.15357149 -0.16839388 0.0016528221 0.038642537 -0.16613054
-0.17945184 0.27562636 0.06477915 -0.025114499 0.04366388 -0.11339963 0.044058844 -0.115484655
-0.20018083 0.18419823 -0.08170635 -0.08254967 0.061858263 -0.007045809 0.16055587 0.1340246
-0.16149268 -0.108750224 -0.05847407 0.114029735 0.13495801 -0.028219327 0.13645084 -0.14911026
0.15342796 0.23889007 -0.06353781 0.09160772 -0.05110164 -0.100926034 0.069406874 -0.059813872
0.14800966 -0.06133896 -0.11626663 0.10010982 -0.16598241 0.07524038 -0.08496208 -0.069881305
0.086346045 -0.028879045 -0.10118358 -0.038812403 -0.16313325 -0.21840423 0.07000493 0.19899207
-0.10161403 0.14391224 -0.19562688 -0.10768444 -0.12704428 0.14229159 -0.003088483 -0.13776383
-0.06985146 -0.024202453 0.15604302 -0.09830882 0.11066491 0.1388618 -0.10123435 0.21088585
-0.14194356 0.011416448 -0.036950435 0.121371515 -0.050914347 0.010234566 0.024813432 -0.1919187
0.028667819 0.19603981 -0.14400925 0.20171458 -0.08713674 -0.13177907 0.049594946 0.19311021
-0.067538746 -0.14832923 0.3321055 0.07289313 -0.06961034 -0.0715655 0.16535704 -0.027098548
0.16101293 -0.06387233 -0.06198658 0.05979351 -0.14264992 0.028045572 0.16347373 -0.12283497
0.13956177 0.20143043 -0.18545543 -0.12613419 -0.17003144 -0.098661214 0.21208638 -0.21883753
-0.20722829 0.10935443 -0.20689294 -0.08475372 0.17458205 -0.2202928 -0.22623064 -0.22182316

layers.2.running_mean f4 [200]
00000000: f120 113e 24db 803e aeb2 ea3d 7059 b03e
00000010: 335d 5a3e 3fde ba3d 86f3 193e a243 233f
00000020: bb5f 4f3e 501b dc3e cd9d a13e a447 683e
00000030: f0ae 3d3f 5724 1b3e d521 a93e 5c75 583e
00000040: a318 413e 15e0 083f 258a f43e 75f5 153f
00000050: 184e c63e 2d56 fe3e 69ea b13e ed37 b63e
00000060: 5622 f33d 06e8 cf3d 3f0f 243e 5398 c63e
00000070: 5c6c 293f b5c4 ec3e c3b2 c93d d965 963e
00000080: d033 b83e 3042 3b3e e341 c53e c5b8 233e
00000090: 1843 663e c0c6 083f 8766 0c3f d215 ee3d
000000a0: 2409 4b3e 39ec 0c3f 03b3 4a3e 4d87 3d3f
000000b0: 77a1 ad3e 7511 823e af1f a13e e3ed 1f3f
000000c0: dc29 163e 4cb6 443e 3ffc 263f f297 143e
000000d0: cc57 2d3e a4db 1b3e fff1 ad3e a403 823e
000000e0: a068 873e 92d2 1b3e 5ae8 a03e 942f 203f
000000f0: d068 903e 7959 833e 3f28 8f3d 74c3 ad3e
00000100: 7fed fc3d fd92 193f c2f6 123f 1081 973e
00000110: 55d4 2d3f 5ad7 443e f652 323f 68d6 8e3e
00000120: 5f2e a03e 5158 643e 8841 983e 91e8 223f
00000130: a02a 9f3e 6407 823e 4a98 953e 1e01 1f3f
00000140: d299 6b3d b78e ba3e 28a7 b13e 2d1e 963e
00000150: be5c bb3d dcd0 3d3e 1bef af3e dabf 9c3e
00000160: 7206 833e a73b 283f a5f9 b23e d038 5a3e
00000170: e93e 1b3f 32db c43d 992a 193e 0800 433f
00000180: c091 583e 19c7 203f 5ee8 673d de96 693e
00000190: 9b40 e93e ac1d b73e 8513 e23e ed06 bd3e
000001a0: 96d6 bb3d c962 313e 46cc 2c3e 81fc 9b3e
000001b0: e96b 023e 607a 3d3f 27b5 d43e e465 603e
000001c0: 739e f33e 6f8e 173f 898e 913e db4e d63e
000001d0: 07d5 293e c0f4 313e 4903 ab3d 9578 623e
000001e0: 6a3b 583f 6849 ae3e f20a 9b3e fded 8d3e
000001f0: fa68 913e e0cf dc3e d72c c83d 3991 713d
00000200: 821d 173e 9b4c 2b3e d4f2 943e d440 0e3e
00000210: c19d 7f3e 3e5e 673e 8721 bb3e fed8 a33e
00000220: 21a9 263e c523 e53e 0af2 103e 7343 733e
00000230: c0fe 7c3e 1715 193f c5f3 933d 9d4b 8d3e
00000240: d178 0c3f 3552 983e ebe3 5b3e 962a 493e
00000250: 2ce9 d13d 50af 2f3f b59c 4c3e 3923 f03e
00000260: d53c 9a3e bc88 8f3e 0878 293e 2be4 1b3f
00000270: 8df6 7c3d 239d a53e d224 673e ee6c 1f3e
00000280: 7f37 993d bd41 483e c626 8d3e e352 fc3e
00000290: 0afd 833e c04c 043f e0bb 033e 1edf dd3e
000002a0: 8e1f 913e 4380 043e c0b6 033f c323 193e
000002b0: 7326 593e 608a 043e 64f6 953e 4f4f a83e
000002c0: 2cc4 c93e 5e64 843e 74e5 9a3e 19b9 be3d
000002d0: b471 fc3d 6a3a 0f3e b291 c93e cf82 ca3d
000002e0: a499 1c3f fc64 bf3e cbee d33d c604 723e
000002f0: 5026 d43d 7de1 823e 6491 8f3e 8095 c53e
00000300: e107 593e b71e c53e 00a7 1f3e b5ac 6e3e
00000310: cdc5 ca3e 2c61 f33d 6631 883d 4563 933e
0.14172722 0.2516719 0.11459862 0.34443235 0.21324615 0.09124421 0.15034303 0.63775074
0.20251362 0.42989588 0.31565705 0.22683579 0.7409506 0.15150581 0.33033624 0.21138519
0.18857054 0.5346692 0.47761646 0.5857766 0.38731456 0.49675122 0.34749153 0.35589543
0.118717834 0.10151677 0.16021441 0.3878809 0.6618097 0.46243826 0.09848549 0.2937458
0.3597703 0.18286967 0.3852683 0.15988453 0.22486532 0.5342827 0.54843944 0.11625256
0.19827706 0.5504795 0.1979485 0.7403458 0.3391225 0.25403944 0.31469485 0.6247236
0.14664406 0.19210166 0.65228647 0.14511088 0.16928023 0.15220505 0.3397369 0.25393403
0.2644701 0.15217045 0.3142727 0.625726 0.28204966 0.256542 0.06990098 0.3393818
0.12349986 0.5998991 0.5740777 0.29590654 0.6790212 0.19222775 0.6965784 0.27897954
0.31285378 0.22299315 0.29737496 0.6363612 0.31087208 0.25396264 0.2921775 0.6211108
0.05751974 0.36437008 0.34697843 0.29319897 0.091485485 0.18536705 0.3436211 0.3061512
0.25590855 0.6571602 0.3495609 0.21310735 0.6064287 0.09612121 0.14957656 0.7617192
0.21149349 0.628038 0.056618087 0.22811458 0.45557103 0.35764825 0.44155517 0.36919346
0.091717884 0.1732284 0.16874799 0.30466083 0.12736477 0.74014854 0.41544458 0.21913868
0.47581825 0.5920171 0.28429058 0.41857037 0.1658517 0.17378521 0.08350236 0.22116311
0.8446566 0.3404038 0.30281788 0.27720633 0.28400403 0.43127346 0.097741775 0.058976386
0.1475735 0.16728441 0.29091513 0.13891917 0.24962522 0.22594544 0.36549017 0.3200149
0.16275455 0.44753852 0.1415483 0.23756199 0.24706554 0.59797806 0.0722423 0.2759675
0.5487185 0.2975022 0.21473663 0.19645151 0.10249552 0.6862688 0.19981654 0.46901873
0.30124536 0.28034008 0.16549695 0.6089503 0.061758567 0.32346448 0.2257264 0.15568897
0.07481288 0.19556327 0.27568644 0.49281988 0.2577899 0.5167961 0.12864637 0.43334287
0.28344387 0.12939553 0.5145073 0.14955048 0.21206073 0.12943411 0.29289544 0.32873008
0.3940748 0.25857824 0.30253184 0.09312648 0.12326375 0.13987127 0.3936897 0.09888231
0.61171937 0.37381732 0.103482805 0.23634633 0.1035887 0.2556266 0.28040612 0.38590622
0.21194412 0.38499996 0.15591049 0.2330807 0.39604035 0.118837684 0.06650047 0.28786674

layers.2.running_var f4 [200]
00000000: 976a 843d 8483 993d a9aa 713d 5c44 023e
00000010: 0cff 0d3e 97d9 073d cf92 343e cf57 3e3e
00000020: 9bcb 973e e7f8 2d3e 3405 423e 3d9d 853e
00000030: 6557 203e 10b9 393e bb02 9c3e 3ca5 503e
00000040: 7d03 1c3e b87d 2c3e 1b05 923e 9fbd 273e
00000050: e032 d73d 18af 633e 7de1 d13e ee26 ce3e
00000060: 20c8 703e e6a4 da3d 8fe8 d63d 8ceb 573e
00000070: b6fc 333e b89c 5f3e 4e7e 853d e234 fc3d
00000080: 8f16 223e 1614 fa3d 417b 823e 992b 093e
00000090: 5606 973e cf89 033e 72e8 473e ca57 ab3d
000000a0: de0e 8e3e 6be9 5f3e 7fca ad3e a3ae e43d
000000b0: 28b8 8f3e ebea a03e 719c 803d 1c7d 443e
000000c0: b762 db3d 4c14 b63e 60a6 5b3e e1f2 f03d
000000d0: 30f2 6a3e 64f0 283e 6549 4f3e e814 5d3e
000000e0: f7ac d43e e594 0e3e 2ffa d03e 3fbb 583e
000000f0: 7392 b03e 0e7a a63e 7aac 9f3c c0f6 e53d
00000100: 8763 5a3d 1e65 5d3e c3bc 243e a7b5 2e3e
00000110: 6266 073e 4b3a 533e ee1b 823e ac0c 163e
00000120: 68c2 a33e 7b95 d53d 044b a83e 331b 273e
00000130: 4e51 c33e d44c 7b3e d9ac 5c3e cd0e 323e
00000140: df7d fb3c 185e ef3d e5e0 ea3e 5f12 9d3e
00000150: 5ca2 463d 9a07 333e dad1 ff3d 2a0b 4c3e
00000160: d67c 813e b7a1 2e3e b6f0 b13e 6c22 433e
00000170: 5c7c 323e f66b 003e a41b 833d 8c05 7b3e
00000180: 72f2 a83e 971e 583e 95e9 743d 4a2b db3e
00000190: 5d72 043e a518 b73e 4b7d 3a3e ee02 843e
000001a0: a0c0 2e3d c86d 3e3e 90a7 ab3e 0274 f63d
000001b0: 75b5 143e b4f9 533e cf19 1b3e a152 733e
000001c0: 24c3 773e 90de 633e 376d 8b3e 2e0e 273e
000001d0: 4d48 f83d 0117 3e3e 5f0c 3e3d 4ad8 4e3e
000001e0: f024 3d3e 9450 e33e 98cb e13e 0e94 123e
000001f0: 755b 1b3e 1925 0d3e fe3e e23d f5e4 c03c
00000200: b066 693d d54f 053e 293f ec3e 13a3 393e
00000210: fd17 c33e f3bb 8c3e 7006 493e 1717 203e
00000220: 57d4 753e cfdc 083e 4de4 733e 429f 903e
00000230: b1cb 283e b58b 663e 6110 ff3c 5366 963e
00000240: ace0 213e a917 bc3e 55e6 cc3d 9e8a 143e
00000250: d582 b53d aa19 5d3e 1dc8 6e3e 1b77 2f3e
00000260: 7da7 be3e ea01 e63d 4484 3a3e 0fe0 853e
00000270: e06f 113d d5ca ab3e 223c 033e b6b2 d03d
00000280: f4ba cb3c 8dbb 053e ade2 773e 481b 8a3e
00000290: c623 653e 705d 7f3e 23a3 4d3d 3dbd 183e
000002a0: 5d25 8b3d 75ac 7d3d de28 e93d 772d 983d
000002b0: 94e3 853e 37fe b43d 7d55 123e c5ec cc3e
000002c0: 6c52 d63d 7565 a53e 43b0 623e 21af 2b3d
000002d0: 3cd2 1b3e 163a ba3d f118 243e b07c d53d
000002e0: ba59 1e3e c494 293e 901c 3b3d 3707 953e
000002f0: 94d4 8e3d 208e 8a3e f8e7 013e a6c7 6f3e
00000300: a2a2 2f3e bef8 273e 833c 1e3e 1186 5a3e
00000310: 0fbb 243e da82 0d3e 1e4d 2a3d d9f0 943e
0.06465643 0.07495788 0.059000645 0.1272139 0.13866824 0.033166494 0.17634128 0.18588184
0.29647526 0.1698948 0.18947297 0.26096526 0.15658338 0.18137002 0.30470833 0.20375532
0.15235706 0.16844833 0.2851952 0.16380928 0.105077505 0.22234762 0.40992346 0.40264076
0.23513842 0.10675983 0.10493576 0.21085948 0.1757687 0.21837127 0.06518231 0.12314774
0.15828918 0.12210862 0.2548466 0.13395537 0.2949702 0.12845539 0.19522265 0.08366354
0.27745718 0.21866386 0.33943555 0.11166122 0.28070188 0.31429228 0.06279839 0.1918835
0.10712188 0.3556236 0.21450186 0.117650755 0.2294395 0.16497952 0.20242842 0.21590006
0.41538212 0.13923986 0.40815875 0.21165179 0.34486732 0.32514995 0.019491423 0.112287045
0.053317573 0.21620604 0.16087632 0.17061482 0.1322265 0.20627706 0.25411934 0.14653271
0.31984258 0.10428902 0.32869732 0.1631897 0.38147968 0.24541026 0.21550311 0.17388459
0.030699668 0.11687869 0.45874706 0.3067808 0.04849468 0.17483369 0.12491198 0.19926134
0.25290555 0.17053877 0.3475396 0.190561 0.17430252 0.12541184 0.064017564 0.24513835
0.3299747 0.21105419 0.059793074 0.42806464 0.12934251 0.3576099 0.18211858 0.25783485
0.04266417 0.18596566 0.33526278 0.120338455 0.14522345 0.20700723 0.15146564 0.23761989
0.24195534 0.2225287 0.27231762 0.16314003 0.12123165 0.18563463 0.046398517 0.20199695
0.18471122 0.44397414 0.44100642 0.14314291 0.15171607 0.13783683 0.11047171 0.023546675
0.056982696 0.13018735 0.46141937 0.18128614 0.3810424 0.27487144 0.19631362 0.15633808
0.24006782 0.13365482 0.23817559 0.28246504 0.16483952 0.22514232 0.03113574 0.29374942
0.15808362 0.367368 0.1000487 0.14506003 0.08862845 0.21591821 0.23318525 0.17135279
0.37237158 0.11230834 0.18214518 0.26147506 0.035507083 0.33553186 0.12815908 0.101903364
0.02486942 0.13059826 0.24207564 0.2697394 0.22376928 0.24937987 0.050204407 0.14915939
0.06794236 0.061932046 0.11384748 0.07430547 0.2615019 0.0883755 0.14290424 0.4002439
0.104649395 0.32303968 0.22137551 0.041915063 0.15216917 0.0909311 0.1602514 0.10424173
0.15463915 0.16560656 0.045681536 0.29107067 0.0697414 0.27061558 0.12686145 0.23416004
0.17151883 0.16403481 0.15452771 0.21340205 0.16086982 0.13819447 0.04157745 0.29090002

layers.4.weight f4 [100, 200]
00000000: 4e92 0dbd 2c7d d8bc 0d32 74bd 0b22 ffbc
00000010: c6a2 19be 854f 903d 6718 acbc 7488 0cbd
00000020: 82a7 1fbb 35f4 99bd c36e 8bbc 8652 a73d
00000030: 3cf9 e1bd 3055 af3d e801 7a3d afea 913d
00000040: eea4 953c 909b 05be 96cb e9bc e02b 4d3d
00000050: 813e 9e3c c3e2 60bb 3f57 253c 255e 823c
00000060: 5e5c 153c 452b 853d 763b 873d 5d52 d63d
00000070: 0b45 46bd b86a 87bd 43ea e13b 6a9c f4ba
00000080: f59c d9bd 499c d5bc 3d01 9d3d feee e93c
00000090: 8ed7 ac3c 7d89 d6bd 643b ebbd 4b92 ac3d
000000a0: c279 c93c 44b9 febc b369 b93d 31a2 9a3c
000000b0: 6f09 af3d 4d5f 1dbc 10b8 f7bd 7f8c c0bc
000000c0: 86e4 0e3d 404f a33d f8f8 c6bd 8363 163d
000000d0: c29e 42ba 1382 9e3d 8956 023d 9cc6 0d3d
000000e0: bb1b b83d 4f15 1bbc 0965 583d 5525 53bd
000000f0: ba5b 183e 88da b83d 27a1 f53c e86b 4b3d
00000100: 73ff a0bc d04a b2bd 77d6 3d3b 07b2 8abd
00000110: ac7f 41bc a259 e53c e748 03bd 8604 2b3c
00000120: 1b8b 813d 5aa7 a7bd e59c 263d eda6 023d
00000130: 796e 13bc 2119 773d ef74 013d 5389 a2bd
00000140: d2f8 973c 5256 8c3d cf5e a13c 1839 473d
00000150: e42f c03d d194 b73d d960 b1bd 59ee b3bc
00000160: 745e 133d 6cab f1bd e7d3 713d dee6 813d
00000170: 9d2e 7abd a6f4 503d 66b7 d63d 77d7 123d
00000180: dea1 993d 4444 91bd 7876 963c 0a6f a23d
00000190: 1dea 7f3d f3d3 2abd 73c7 77bd 3f40 973d
000001a0: d15f 0d3d 1748 46bc 533b 903c 9a22 90bd
000001b0: e4b8 ca3c 5f2c b7bd ee17 bdbd f9b1 8e3d
000001c0: 34ac ebbd 7ec3 a9bc 7334 0bbc c0b1 1dbd
000001d0: 13cc b53d 962b 003e ca36 c83c d8f6 9abc
000001e0: f900 3dbd bee8 853c 33e3 583d b733 37bd
000001f0: 3765 ccbb 53a7 59ba 0f36 843a e352 403c
00000200: 698f 14bd 9ee6 e33c e12c c63d 1b62 483d
00000210: b975 993d 6e31 2e3d 33be 743d d2c8 b6bc
00000220: 6fb6 b83d edc2 383d 6b37 33bc e31e b43d
00000230: d571 b93c 43d0 b3bd 7e9f c63c 6f13 003e
00000240: 4a5f 8bbd 847c fdba c960 923d b9f7 6d3d
00000250: 9cb8 573c 9df1 8dbd 1de4 5e3c 9d5d fc3b
00000260: b60d a83d 4cd0 32bc af8c 1abd 4a41 13bc
00000270: 3d4a ae3d de45 b63d 48ab 43bd f503 d9bb
00000280: 6379 7dbc 3f2e 133c 246e ea3d 9abc 87bd
00000290: 7280 2b3e d021 cc3c 0049 d03b 4623 bb3b
000002a0: 9df7 d23d 4657 353c e63c 09be 1870 fd3b
000002b0: 0c24 d7bb 1041 a4ba f5ef db3c 6760 043d
000002c0: 217f a6bd 4c9a ec3d 22bf 6d3d 4be4 91bd
000002d0: aca9 913d 3619 4c3d 1802 2b3d d1de b23c
000002e0: aa75 8839 1b2e 2abd c31e e63d afac 2cbc
000002f0: d394 893b a082 bc3c 05d6 3d3d 38fe f4bc
00000300: 240e 583d 38a7 a1bd 9340 9b3d 0789 b1bb
00000310: efa0 7bba 9003 133a cd5e 613d 9e3a 5a3d
00000320: 9283 a1bc 3988 153d dddc 1f3d 133d 3ebd
00000330: fe11 50bd 9b56 0d3d 4ee8 ecbc eeca 90bd
00000340: 2ad0 9abc 61ec e83c 6a14 b23b 928d c53c
00000350: cba0 ccbc 116f 75bd 1a72 91bd 2bb0 90bd
00000360: 9b33 2fbd f207 f4bc 318e 383c 544d 70bc
00000370: 6135 b6bc b783 5ebd 9f4d 95bd 2bc7 93bd
00000380: e53c 05be 97bd acbd 1d34 3bbc ae24 f23c
00000390: a8ea ac3c cd2f a2bd e96c 243d f470 11bd
000003a0: 1fb4 0dbd 4795 3ebd 701a 473c 09b0 b23c
000003b0: 43d7 1c3d 44a5 1a3d dce7 8d3d 3e6f 33be
000003c0: 7e57 8cbc 75d7 5b3d 2fbc babc 0682 2ebc
000003d0: 1791 54bd 9b73 f6bd 7919 44bd 2af4 7a3c
000003e0: 33c2 b83c 9738 abbd 394a 56bd 4759 22ba
000003f0: 71b8 1b3c 56d3 9fbd 028d f93c a69f 6b3b
-0.034563355 -0.026426874 -0.059618045 -0.031144163 -0.150035 0.07046417 -0.02100773 -0.03430982
-0.0024361317 -0.07517282 -0.017020589 0.08170037 -0.11033866 0.0856117 0.061036974 0.071248405
0.018267121 -0.13047624 -0.02853946 0.05009067 0.019316914 -0.0034314848 0.010091602 0.015914032
0.00911626 0.06502394 0.06603138 0.10464928 -0.04840569 -0.06612152 0.0068943813 -0.0018662338
-0.1062564 -0.0260755 0.07666252 0.028556343 0.021098878 -0.104754426 -0.11485937 0.08426341
0.024594191 -0.0310942 0.09053364 0.018876167 0.08546721 -0.009605241 -0.12095654 -0.023504494
0.034885906 0.079741 -0.09715456 0.036715996 -0.00074241695 0.077396534 0.031820808 0.034613237
0.08989664 -0.00946553 0.05283073 -0.051549274 0.14878741 0.090260565 0.02998407 0.049663454
-0.019653058 -0.087056756 0.0028966942 -0.06772237 -0.0118102245 0.027996842 -0.032051947 0.01043809
0.063253604 -0.08186217 0.04067697 0.031897474 -0.008998507 0.0603267 0.031605657 -0.07936349
0.018551264 0.06852402 0.019698529 0.048638433 0.093841344 0.08963931 -0.0866105 -0.021964239
0.03597875 -0.11800274 0.059039976 0.063428625 -0.06107961 0.051014565 0.10484199 0.035850015
0.07501577 -0.07093099 0.018367037 0.07931335 0.062479127 -0.041706037 -0.060492944 0.07385301
0.034515206 -0.0121021485 0.017606413 -0.0703785 0.024746366 -0.0894401 -0.0923308 0.06967539
-0.115074545 -0.0207231 -0.008496392 -0.038499594 0.08876815 0.12516627 0.024440188 -0.018916532
-0.046143506 0.016346332 0.05295105 -0.044727053 -0.0062376517 -0.00083028263 0.0010086911 0.011738512
-0.03626958 0.027819928 0.09676529 0.048921686 0.07493157 0.04252761 0.0597517 -0.022312555
0.090191714 0.04510777 -0.010938506 0.08794954 0.022637287 -0.08779957 0.024245974 0.12507413
-0.06805284 -0.0019339477 0.071473666 0.058097575 0.013166573 -0.0693085 0.013604191 0.0077015893
0.0820574 -0.01091392 -0.037731823 -0.008987734 0.085102536 0.08900045 -0.04777077 -0.006622786
-0.015470835 0.008983194 0.11446789 -0.0662777 0.16748217 0.024918467 0.0063563585 0.005710992
0.10301135 0.011068171 -0.13402137 0.00773431 -0.0065655764 -0.0012531597 0.026847819 0.0323185
-0.08129717 0.11552867 0.058043607 -0.071236216 0.071124405 0.04982873 0.041750044 0.021834763
0.00026027608 -0.041547876 0.11236336 -0.010539218 0.0041986494 0.023011506 0.046346683 -0.029906377
0.05274786 -0.078932226 0.07580676 -0.0054179463 -0.0009598871 0.0005608136 0.05502205 0.053278558
-0.019716058 0.036506865 0.03902899 -0.046444964 -0.05079841 0.03450642 -0.028919365 -0.07069956
-0.018898088 0.028433027 0.0054345625 0.024115358 -0.024979016 -0.059920374 -0.07101841 -0.070648514
-0.042773824 -0.029788945 0.01126437 -0.014666874 -0.02224225 -0.05432483 -0.07290196 -0.07215723
-0.1301151 -0.08434599 -0.011425999 0.029558506 0.021107987 -0.079192735 0.040142927 -0.03550811
-0.034595605 -0.04652908 0.012152299 0.021812456 0.038291227 0.037755266 0.06928989 -0.17522904
-0.017131563 0.053672273 -0.022794811 -0.010651117 -0.05189618 -0.12033769 -0.047875855 0.015317002
0.022553539 -0.08360403 -0.052316878 -0.0006193113 0.0095044235 -0.07803981 0.030462746 0.0035953312

layers.4.bias f4 [100]
00000000: 9842 723c f071 113f a985 3a3e 91d8 db3d
00000010: 896c 9a3e 5fce 1abd 0589 b23e ec38 c53e
00000020: 758f 943e 084d 593d 6db7 91bd f70d f43d
00000030: 9e42 a93e b4a5 8c3e 9acc 3cbe 7f90 d93e
00000040: 81a0 8ebc 6740 cebd 913c 333e ee9f a73e
00000050: d372 dc3e bced d93d bbef 853e c605 aa3e
00000060: 6666 a23d fc96 09be 710f be3e 0ccb 283c
00000070: d17c af3e 5b01 bd3d c944 823e 1771 983e
00000080: c3dc b1bd 6184 5c3e 665a e23e e201 fc3e
00000090: 61ac 48be 6df1 a2bd 926c d23e af09 673d
000000a0: ed35 513d fb16 5a3d aa42 d03e c463 bb3e
000000b0: 1c76 be3d 4439 b33e a8dd a1bd f066 b23e
000000c0: 7508 9d3e 5688 af3e 3a9e a93d cf8a ea3e
000000d0: f5c6 213d 083a f7be a686 d23d de5c f9bd
000000e0: 2ef1 b63e 9bc5 983c dfe9 1e3f e26d 083f
000000f0: 950a 873d d46e ccbd f292 aa3e e99d aa3e
00000100: 2107 20bd 423f 013e 2c68 6b3d 5b24 84bd
00000110: 107c a93d c265 8238 b845 7f3d b178 e73e
00000120: 5335 1c3e 8bc6 973e f72b 1d3e 0579 cf3d
00000130: 7081 debe 5819 f03e 245d c43b 77c5 f23e
00000140: bcce a23e 60b2 373d d870 1d3e 884a 813e
00000150: c22e adbd 10de 59bd b1c5 0abd ca98 633d
00000160: 58e1 c1bc dc44 aa3e 644c 8c3d 1f71 1dbd
00000170: 8018 843d b971 723d 20ff 083f c635 9c3e
00000180: c3db 9f3e 343c a63e 7f9f 363e a56a fabd
0.014786385 0.5681448 0.1821505 0.10734666 0.3016093 -0.037794467 0.34870163 0.3851999
0.290157 0.05305198 -0.07115064 0.11916726 0.33058637 0.2747017 -0.18437424 0.42493054
-0.017410519 -0.100708775 0.17503573 0.32739204 0.43056354 0.10641047 0.26159462 0.3320753
0.07929687 -0.13436502 0.37121156 0.010302316 0.34274915 0.09228774 0.25443104 0.2977378
-0.08684685 0.21534874 0.44209594 0.49220186 -0.19597007 -0.079562046 0.41098458 0.05640572
0.05107682 0.053244572 0.4067586 0.36599553 0.09299871 0.35004628 -0.07903606 0.3484416
0.30670515 0.34283704 0.082821324 0.45809028 0.03949638 -0.48286462 0.102795884 -0.12175916
0.3573088 0.018648913 0.6207561 0.5329267 0.06593815 -0.09982076 0.33315235 0.333236
-0.0390693 0.12621787 0.057472393 -0.06452247 0.08275616 6.217837e-05 0.06232235 0.45209268
0.15254717 0.29643664 0.15348803 0.101305045 -0.43458128 0.46894336 0.0059925485 0.4741628
0.3179835 0.044847846 0.15375078 0.25252175 -0.08456184 -0.05319029 -0.03387994 0.055565633
-0.023667023 0.3325566 0.06850508 -0.03843796 0.064499855 0.059190486 0.5351429 0.30509776
0.31222352 0.32467806 0.1783428 -0.12227372
